baseline_params.pth (torch, 29855 bytes, 6 tensors)

fully_connected_1.weight f4 [64, 37]
000000 08 fe 30 3e c8 dd c9 bb bb 98 62 be a1 73 97 be
       0.17284405 -0.0061604716 -0.22128575 -0.29580405
000010 72 d1 92 be 0b 6b 16 3e 22 46 ee 3c 73 3a 93 3d
       -0.2867542 0.14689271 0.029086176 0.07188883
000020 59 96 59 3d 9f 56 08 be 47 df 15 be 86 d9 f2 bc
       0.0531219 -0.13314293 -0.14635955 -0.029644739
000030 67 e3 31 be c7 4e 94 3d b6 db 28 3d f4 e9 6b 3d
       -0.17371903 0.07241588 0.041225158 0.057596162
000040 7a 35 d8 bc a0 18 aa 3d 70 c2 92 3d c9 27 bd bc
       -0.026392687 0.08305478 0.07165992 -0.02309026
000050 a5 4b b1 3d f0 5b 3f bc e4 89 13 3e 27 3e 38 3e
       0.08657006 -0.011679634 0.1440807 0.17992459
000060 3c 74 21 bb 50 30 ef bc 87 a9 2b 3e f3 f7 1e be
       -0.0024635931 -0.029197842 0.16763888 -0.15524273
000070 1e 50 a3 bc d0 4e a9 bd 41 5a b2 3d 29 8c 3f 3e
       -0.019935664 -0.082669854 0.08708621 0.1870581
000080 17 8a 99 be ec 8e 36 be b7 6f b4 bd 7f 1d 9f bd
       -0.29988167 -0.17827958 -0.088103704 -0.07769298
000090 49 12 38 bd 4d 77 55 3e be ad e8 3d 30 63 0b 3c
       -0.044939313 0.20846291 0.11361264 0.008507535
0000a0 c4 ba c6 bc 4c 92 f2 bd 5e d8 30 3e ed b5 a0 be
       -0.024258979 -0.1184431 0.17270038 -0.31388798
0000b0 c1 5b 2d be 05 70 f9 be 38 02 a2 bf db 1f 4f 3d
       -0.16929533 -0.48718277 -1.2656927 0.05056749
0000c0 7a 60 69 bc 5f 45 e3 3d 11 53 ef 3d 2b 3c a4 3d
       -0.014244193 0.11097216 0.116857655 0.08019289
0000d0 d9 e1 c8 3d ee 6d a9 3d db 11 e0 3c 0a bf 60 bc
       0.09808702 0.082729205 0.027352264 -0.013717422
0000e0 d0 6c 07 bc ec cc a4 bd ad e4 11 be 52 2d 80 bd
       -0.008265689 -0.08046898 -0.14247389 -0.06258644
0000f0 b6 30 e8 3d 2d a6 fe 3d d6 67 08 bd df e6 85 3d
       0.11337416 0.12434039 -0.03330215 0.06538176
000100 f2 6f b9 3d 50 99 dc bc 5e 5e c3 3c 97 2e 0c 3d
       0.09054555 -0.026928574 0.023848709 0.03422412
000110 f2 64 d4 3d d0 7b 63 3e fc 49 f5 bc 24 a6 b7 bd
       0.10370816 0.222152 -0.029942505 -0.08967236
000120 90 a6 23 39 b2 cf c9 3c 28 c1 29 3e 3e 79 e3 3d
       0.0001560694 0.02463517 0.1657759 0.111071095
000130 7c 93 d9 3c 7c 4c 11 bd 90 3c 16 3e 76 8c eb bd
       0.026559584 -0.03547333 0.1467154 -0.115014
000140 a9 58 33 be bb ff 92 3e 2a 84 c1 3c 17 40 6a 3e
       -0.1751429 0.28710732 0.023622591 0.22876011
000150 7b 9f 0c 3e 40 95 a1 bd 1b c3 04 be 8f c2 3f be
       0.13732712 -0.07889795 -0.12965052 -0.18726562
000160 13 72 63 bc 44 0e bc bd 13 9c 2e 3d 24 4f 99 3d
       -0.013882178 -0.091824085 0.042629313 0.07485798
000170 b7 3f d4 3d e6 72 70 3e ae 80 aa be 92 fb 27 bc
       0.10363715 0.2348133 -0.333013 -0.01025285
000180 42 9b 0f 3e b6 3c 6b 3d 6e 5e c8 3b e6 ce b9 bd
       0.1402407 0.057430945 0.0061147725 -0.09072666
000190 1f e8 16 3e c5 7c 5b 3e cf c9 d0 3c 08 67 8e 3d
       0.14736985 0.21434315 0.025486855 0.069532454
0001a0 ab e6 49 be 07 c6 ee bd fa 99 84 3d 07 5b ee 3b
       -0.19716899 -0.116588645 0.06474681 0.007274035
0001b0 1b 3b 62 3e 91 ba 79 3d 28 62 d9 bc c4 9d 2b 3e
       0.2209286 0.06096894 -0.026536062 0.16759402
0001c0 0b 1c ba 3c 85 c1 86 3d cc b9 6c 3d 9c bd 80 be
       0.02271845 0.0657988 0.057794377 -0.2514466
0001d0 bd 4e 66 bc 34 6b 07 3d 2e 08 12 3e c1 34 02 be
       -0.014056859 0.03306122 0.14260933 -0.12715437
0001e0 7e 5d 39 3e 8c b1 ae be 10 2d 16 3d dd d5 a4 3d
       0.1810207 -0.34119833 0.03666407 0.08048604
0001f0 43 56 97 3d 33 ea b3 3d 00 24 b2 3c f8 a6 3f be
       0.073895 0.08784904 0.021745682 -0.18716037
000200 28 b5 58 be 2f df a6 3c c3 bf 87 be d9 e7 79 3d
       -0.21162856 0.020370094 -0.2651349 0.061012123
000210 ca cc 14 be e2 e7 36 3d 4f d0 02 3e 5c 08 8f bd
       -0.14531246 0.044654734 0.12774776 -0.06984016
000220 cb 52 61 bd fd a7 3c bd 43 16 c3 3d 5c 4f 39 3e
       -0.0550106 -0.046058644 0.095257305 0.1809668
000230 9e 20 ad bc 40 d0 82 3e 84 5f 92 3d 80 2e 75 3c
       -0.021133717 0.25549507 0.071471244 0.0149647
000240 4e 50 70 bd 04 71 dc be f5 e5 35 3e 9f 9a 53 bc
       -0.058670335 -0.43054974 0.17763503 -0.0129152825
000250 d8 d2 0d bd fc e7 31 be f9 a0 c8 bd 2b 17 40 bd
       -0.034624904 -0.17373651 -0.09796328 -0.046897095
000260 17 10 e6 3b ae c6 bb 3d 39 6a 46 3e 85 80 ba 3b
       0.007020961 0.091687545 0.19376458 0.0056915903
000270 23 3f 01 be 35 07 24 bf 09 00 bf bd b5 86 41 bc
       -0.12621741 -0.640735 -0.093261786 -0.011811902
000280 0e 3d 54 3c 92 01 5d 3d 6d 07 9a bd 70 26 81 be
       0.01295401 0.053956576 -0.075209476 -0.25224638
000290 59 e5 68 3d bc d2 b2 3d a5 6d a2 3d 12 65 d0 3e
       0.056859348 0.08731601 0.07931069 0.4070211
0002a0 9e db 8b bd c2 29 43 bd 1f 14 3d 3d 2a f6 aa 3d
       -0.06828998 -0.047647245 0.046161767 0.08347733
0002b0 76 77 28 3e 3a b9 70 3e 2b b2 dd be 15 41 63 bc
       0.1645182 0.23508158 -0.43299994 -0.013870497
0002c0 08 99 28 be 4b f1 45 bf c9 3f 48 3c 7b e0 11 bc
       -0.16464627 -0.7732131 0.012222239 -0.008903618
0002d0 f9 96 05 3e 91 c3 71 bc 80 89 48 3e 9a 1e 17 3d
       0.13045873 -0.014756099 0.19583702 0.03689442
0002e0 ed 27 84 3c 2d 6a fc 3c df d9 96 bc 55 40 58 bc
       0.01613232 0.030812347 -0.018414436 -0.013198932
0002f0 5c 44 e3 bd 05 dc 13 bc 27 d8 5f 3e 0e b9 a9 3c
       -0.11097023 -0.009024625 0.218598 0.020718124
000300 b1 58 27 be bb a2 91 3d 67 6c c4 be c7 7a 5b 3c
       -0.16342427 0.071111165 -0.38363954 0.013395972
000310 8a 10 28 be e2 e8 52 bd 83 f6 c2 3d 16 6b 96 3d
       -0.16412559 -0.051491626 0.09519675 0.07344644
000320 d0 58 c2 3d 27 20 04 bd 82 81 dc bc 8f 4d 1e be
       0.09489596 -0.032257225 -0.026917223 -0.15459274
000330 c9 ae 19 be 6f 54 4d 3e 6d 05 92 bd 57 35 02 3c
       -0.15008081 0.2005174 -0.07129941 0.0079472875
000340 85 90 bf 3c 5f fb 55 3e ae e8 18 3d 46 64 95 bd
       0.023384342 0.20896672 0.037331276 -0.07294516
000350 f6 23 ec bd f2 4f 96 3e 9d e3 1a 3e 00 40 a8 3d
       -0.115302965 0.29357868 0.1512589 0.08215332
000360 45 09 3f be ca 72 09 be 43 0c 9b 3e f0 6c a8 3e
       -0.1865588 -0.13422695 0.30282792 0.32895613
000370 a4 b2 32 be c7 2a 99 3d b9 6e aa 3c a2 ce 42 bd
       -0.17450958 0.07478862 0.02080475 -0.04756034
000380 16 9c 37 bf 6c 4c 69 3e 40 7c 11 be 0f 72 68 be
       -0.71722543 0.22783059 -0.14207554 -0.2269976
000390 4c fb 5c be fa 74 c5 3d a3 d3 35 bd 9f 7f 49 3e
       -0.21580237 0.09641452 -0.044391286 0.1967759
0003a0 cd e3 58 be 2b 03 e7 3d 5f f3 90 3d 8a 11 f0 3c
       -0.21180649 0.11279901 0.07077669 0.029305238
0003b0 d9 6a 80 bd 30 a8 28 be 34 ee 34 3c 92 5f 38 be
       -0.062703796 -0.16470408 0.01104312 -0.18005207
0003c0 87 eb 38 be 2f f2 85 3e 90 28 9e bc a4 41 60 be
       -0.18058597 0.26161334 -0.019306451 -0.2190004
0003d0 a1 26 46 3e fb 29 e6 be b1 3c 02 3e 13 d1 78 be
       0.19350673 -0.44953904 0.12718464 -0.24298505
0003e0 28 75 ca bd 42 7e 75 bb d0 25 0e be c3 e2 c7 3c
       -0.09885627 -0.0037459289 -0.13881612 0.02440012
0003f0 81 8d 2a bd cf 4e 99 be 5a 40 2f bd 7b e0 3b 3d
       -0.041638855 -0.2994294 -0.04278598 0.045868378

fully_connected_1.bias f4 [64]
000000 e5 29 08 3e e3 40 8a 3c 29 f5 2d be 87 f9 ab bd
       0.13297231 0.016876644 -0.16988052 -0.08397203
000010 dc 6d 3b 3e e4 6b 82 bc e3 55 fa bd 70 81 8e 3a
       0.18303627 -0.015920587 -0.12223413 0.0010872316
000020 c5 38 4b 3c 37 26 50 be dd 44 52 3e 08 df 09 3e
       0.012403672 -0.20327078 0.20534082 0.13463986
000030 55 e3 81 3d 96 3f fe 3d 29 db 62 bd c6 8f 8b bd
       0.06342188 0.12414472 -0.05538479 -0.06814532
000040 0d a1 3e 3d e6 34 50 3c e7 df e1 3c 9a 87 68 be
       0.04654031 0.0127079245 0.027572585 -0.22707978
000050 b2 96 fa bd f4 ab 07 bc c0 3c d5 3c 54 c4 e9 bd
       -0.12235774 -0.008280743 0.026029944 -0.114144
000060 ef 83 2f be 72 b2 42 3e 3f 2f dc 3c 3c e3 50 be
       -0.17140172 0.19013384 0.026877997 -0.20399183
000070 33 04 1f 3e b9 3c 2a 3e ad 64 1c be af a6 64 be
       0.15528946 0.16624726 -0.1527278 -0.2232921
000080 df 48 22 3e 4b 2b 6a bc 4c eb 0e be 14 3a 41 bb
       0.1584811 -0.014292548 -0.13956946 -0.002948408
000090 1c ac 48 3c 92 c9 3c 3d 7c 85 26 bd e7 17 f4 bd
       0.012248065 0.04609067 -0.040654644 -0.119186215
0000a0 d6 89 dc bd a7 76 30 bd 1f 37 36 be 65 dd 38 3e
       -0.107684776 -0.043081906 -0.17794465 0.18053205
0000b0 76 1a 1e 3d 1f eb f0 bd 74 e8 b6 3d 9b f5 2c be
       0.038599454 -0.11763596 0.08931056 -0.16890566
0000c0 d5 8e 1c be 10 d4 3c 3d 3e 67 12 be 11 04 48 3c
       -0.15288861 0.046100676 -0.14297196 0.012208001
0000d0 cd 27 a0 bd f9 b4 7a bd a6 2b 03 be a5 3c 41 3c
       -0.078200914 -0.061207745 -0.1280962 0.011794244
0000e0 b7 21 c9 3d 71 10 d3 3c 86 c2 d5 bd 1b 29 03 be
       0.09820884 0.025764676 -0.10437493 -0.12808649
0000f0 b9 54 22 39 3b c4 59 3d e9 65 d4 3d 36 a7 50 3c
       0.00015481086 0.053165656 0.10371 0.012735179

fully_connected_2.weight f4 [64, 64]
000000 97 73 e1 bd c9 e9 6d be 0d d8 89 3e 86 07 90 3e
       -0.11008375 -0.23233713 0.26922646 0.2813074
000010 ef 39 2d bd b9 91 d0 bc de 81 af bd 88 97 1f bc
       -0.042291578 -0.025460111 -0.08569692 -0.009740718
000020 98 4a 8a 3d e3 49 49 be 60 2d bc 3d 5b 3b 5f be
       0.06752509 -0.19657092 0.09188342 -0.21799986
000030 98 51 0d bd 27 95 38 bd 95 ba 99 bd 85 80 14 be
       -0.034501642 -0.045064118 -0.07506291 -0.14502151
000040 29 64 b6 be 81 87 11 3e e3 e7 d1 be bf e8 c2 bc
       -0.3562329 0.14211847 -0.40997228 -0.023792623
000050 a2 27 66 3d 7b 3b 28 3d 06 1e 67 3e bc 45 01 bf
       0.05619014 0.04107235 0.22570047 -0.5049703
000060 94 c0 f8 be 88 7e f2 bd ee 5e fb 3d 95 33 e2 3d
       -0.48584425 -0.1184054 0.12273966 0.11044995
000070 44 26 ab 3d 75 bb 24 bd a0 44 80 3e 3e 75 8a 3d
       0.08356908 -0.040217835 0.25052357 0.067606434
000080 a1 03 95 bd f9 54 d2 3e d7 79 da bc f6 44 7b bd
       -0.07276083 0.41080454 -0.026669426 -0.061345063
000090 8d 79 e0 bd cf 99 79 3d b7 2c 7d 3e d0 b8 88 be
       -0.10960684 0.0609377 0.24724089 -0.267035
0000a0 23 6f 8f bb 97 f0 08 bb e0 fe 95 3c 66 66 e8 3c
       -0.004377262 -0.0020895356 0.01831001 0.02836914
0000b0 a3 52 5a 3e 78 7a 0b bc e4 46 88 be fa 7b c4 bc
       0.21320586 -0.008513086 -0.26616585 -0.023984898
0000c0 29 0a 1c bd 9e d4 ad be f0 ae 8d 3d 53 ed da bd
       -0.038095627 -0.33951277 0.06918132 -0.10689797
0000d0 01 e0 07 bf 3f c2 17 be 89 8f 63 3e 19 b9 ca 3d
       -0.5307618 -0.14820193 0.22222723 0.09898586
0000e0 d2 04 45 be 55 b2 bc 3d 23 e7 ba be af 51 78 be
       -0.1924012 0.09213702 -0.36504468 -0.2424991
0000f0 4f 82 0a bc f1 bf cf bd d0 0f 3b 3c d9 75 b8 bd
       -0.00845392 -0.10144032 0.011417344 -0.09006853
000100 c8 96 58 3d fd 35 0d 3e 8d 74 99 bd c5 26 91 bd
       0.05287817 0.13790126 -0.074929334 -0.07087473
000110 9c 19 5f 3d 64 24 97 3d 63 cb f0 bd 62 aa 42 3d
       0.054467782 0.07379988 -0.11757543 0.04752577
000120 a5 72 da bd e4 59 d5 bd 48 02 d7 3b 76 2d 20 3e
       -0.10666398 -0.10417536 0.0065615512 0.15642342
000130 fa c4 b0 be 15 58 9e 3e bf 97 8e bd 88 3c 8a bd
       -0.3452528 0.30926576 -0.06962537 -0.06749827
000140 8e 71 bf 3d 17 1c a7 3d 14 78 a7 3c a0 1e b2 bd
       0.09347831 0.081596546 0.020443 -0.086972475
000150 e8 63 19 bd 9b 7e b2 3c c1 5f 07 3e df 4d 72 bd
       -0.037448794 0.021788886 0.13220121 -0.059156295
000160 dd fa 7f 3a 7f e4 31 3e e5 47 a3 be 1c 37 16 be
       0.00097648596 0.1737232 -0.3189079 -0.1466946
000170 74 cd ec 3d 09 fa 7d bc ae 10 e3 bd 6c d5 13 be
       0.115626246 -0.015501508 -0.11087166 -0.14436883
000180 76 d0 2b be b7 03 04 3e de b7 de bc 2e b8 cd 3d
       -0.1677874 0.12892042 -0.027187284 0.10044895
000190 73 4b 85 3d de d8 3d 3d a9 db 97 3d 67 98 43 be
       0.065085314 0.0463494 0.07414944 -0.19101106
0001a0 c0 13 12 3d 36 37 40 3e 82 a0 65 bd 9c 42 90 bd
       0.035663366 0.18771061 -0.056061275 -0.07043955
0001b0 9a 36 00 3e 3e 94 72 bd a9 6d 45 be 8a 37 1c bd
       0.12520829 -0.059223406 -0.19280113 -0.038138904
0001c0 a1 23 03 bd 0c c0 4b be ca dc e2 bd ff c7 4f 3d
       -0.0320164 -0.19897479 -0.110772684 0.05072784
0001d0 17 90 f0 bd dd 90 c3 3d a4 74 1b bc 55 8c 54 3d
       -0.11746233 0.09549115 -0.0094882585 0.051891644
0001e0 a5 81 bf bd 66 63 58 bd 2b 1a 23 3e 42 22 ad bd
       -0.093508996 -0.05282917 0.15927951 -0.084538
0001f0 dc 32 1f be 36 7c 24 3e 53 d8 cd 3d 37 f1 6a be
       -0.15546745 0.16063008 0.10051026 -0.22943579
000200 71 07 73 be b9 2a df be 1f cd de 3d 5f 03 11 bd
       -0.23733307 -0.43587282 0.108789675 -0.035403606
000210 2e c3 32 3e dc bb c6 be 9d 6e c2 ba a6 6e 75 bd
       0.17457268 -0.388152 -0.0014833991 -0.059919976
000220 9d 06 7a 3d 2c 63 ec be dc 9a ee bd 45 c0 9f be
       0.061041463 -0.46169412 -0.11650631 -0.31201378
000230 68 25 b0 3c 20 5a 83 bd f4 d5 1c 3d 14 c5 2d be
       0.021502212 -0.06413674 0.03828998 -0.1696971
000240 4d 9c 55 be dd d3 57 3c 9c 5b 1d bc 21 f3 8f be
       -0.20860405 0.013173071 -0.009604361 -0.2811518
000250 c9 2b ab be 18 a2 17 3d 1b 84 4f bd 1b f2 c3 bd
       -0.33431843 0.03701982 -0.050663095 -0.09567662
000260 7e 72 b6 be 09 e4 59 be 59 88 ae 3e 38 73 1e be
       -0.35634226 -0.21278395 0.340884 -0.1547364
000270 cc 42 eb be 2b 67 49 bd e4 af 35 be 1f 97 1a bd
       -0.459494 -0.049170654 -0.17742878 -0.037741777
000280 09 9f bc be 34 31 14 bd 24 d4 56 be 5f 6d 0b 3d
       -0.36840084 -0.036179736 -0.20979363 0.03403985
000290 3c 6b fc 3d 36 d3 88 3e 27 ef e5 3d 90 80 68 3e
       0.12325141 0.2672364 0.11227255 0.22705293
0002a0 ce f0 af bc 85 27 94 3a 9d f7 9b be 20 2f 46 3d
       -0.02147713 0.0011303282 -0.3046235 0.048384786
0002b0 02 ac a8 be 45 f9 e3 3c e5 b0 18 3e e4 83 bb be
       -0.32943732 0.027828822 0.1491123 -0.36624062
0002c0 2e 9d 43 be 30 6a eb bd 97 f9 a5 be 20 85 8e be
       -0.19102928 -0.11494863 -0.32416984 -0.2783594
0002d0 2d b4 93 be 8c 8e 09 be 89 b5 11 bf 59 50 28 bd
       -0.288484 -0.13433284 -0.56917626 -0.04109225
0002e0 ea 0e 8f be 7c b2 d1 3d df c2 04 bf 71 6d fb 3c
       -0.27941066 0.10239121 -0.5185985 0.030691834
0002f0 60 a6 0a be 22 37 a8 3e a7 aa f5 3d 94 58 39 be
       -0.1354003 0.32854563 0.1199544 -0.18100196
000300 cf b2 ef bb eb ee 99 bc 25 01 d6 3c ba fe 26 be
       -0.007315017 -0.018790683 0.026123593 -0.16308108
000310 6b 73 b4 3d ad b1 68 bd ca fa cf bd 7f 47 fc bd
       0.08811077 -0.05681007 -0.10155256 -0.12318324
000320 95 b9 51 bd 33 0a af bc 61 a7 04 3e 48 8e 1c 3c
       -0.051202375 -0.021367168 0.12954475 0.009555407
000330 30 7d 92 3d 90 6f 53 3d c2 8c 90 bc 95 d9 04 bd
       0.07152784 0.051620066 -0.017645244 -0.032434065
000340 cc e4 10 3e 13 e0 68 3d e2 af 0d be e2 82 7c bd
       0.14149779 0.05685432 -0.13836625 -0.061648257
000350 5c e8 97 3d e7 b1 1c 3d df 44 a1 bd 04 51 57 bd
       0.07417366 0.0382556 -0.07874464 -0.052567497
000360 3f d9 86 3d 26 86 1e bd 11 8d 2e 3d 36 a9 76 3e
       0.06584405 -0.038702153 0.042615 0.24087986
000370 da 7d 5d 3e 5a 51 d5 be 2e 56 83 be dc 2d a6 3d
       0.2163004 -0.4166363 -0.25651687 0.08114216
000380 a1 b7 ea bb b3 d0 23 be b3 8d 2a 3d 1e 67 97 ba
       -0.0071630036 -0.15997581 0.04163904 -0.0011551117
000390 49 f0 0f be e4 44 40 3e 35 b2 03 be ea fa 0c be
       -0.14056505 0.1877628 -0.1286095 -0.13767591
0003a0 fe 49 84 3d 14 3e b8 3c 33 e6 2c 3e 71 af fc bd
       0.064594254 0.022490539 0.16884689 -0.1233815
0003b0 a3 68 f7 3d 7c c5 8c 3d f5 10 95 be 05 be 28 be
       0.12080505 0.06873605 -0.291145 -0.16478737
0003c0 8b 5e 75 be 4d 0f 17 3e 7a b0 ea bc cb f1 7e be
       -0.23961847 0.1475193 -0.028648604 -0.24896924
0003d0 48 de 0a be 3c b6 b6 bd 22 fa fd 3d c2 63 a4 3d
       -0.13561356 -0.08921477 0.12401225 0.0802684
0003e0 35 6f 02 3e 27 52 c5 be 23 ab 7e 3c bb 79 57 3d
       0.12737735 -0.3853924 0.015543732 0.052606326
0003f0 ee 1d f4 bd 7c 89 2b be f6 5e 85 be 41 8f 9c 3d
       -0.11919771 -0.16751665 -0.26049012 0.07644511

fully_connected_2.bias f4 [64]
000000 2a 91 14 bd 66 d0 3a bd 5e 04 be 3d 35 97 66 3d
       -0.03627125 -0.0456089 0.09278177 0.056296546
000010 31 32 8f 3d 9e 5c 0e be 96 46 83 bd 24 2b 60 3d
       0.06991995 -0.13902518 -0.064099476 0.054728642
000020 d1 95 ca 3d 15 51 82 3e 39 70 95 bd c3 46 16 3e
       0.098918565 0.25452486 -0.072967954 0.14675431
000030 0a 64 1c 3d 5a 41 2e bd b1 f7 aa bd 6c 13 96 3c
       0.038181342 -0.042542793 -0.08348025 0.018319808
000040 46 82 50 bc 58 f0 62 bd 72 92 51 bd 29 31 36 3d
       -0.012726372 -0.05540499 -0.05116505 0.044480477
000050 15 6f 23 3e 06 b2 13 3e c2 8f f8 bd 25 fb 5d bd
       0.15960343 0.1442338 -0.121367946 -0.05419459
000060 ff 23 1d be 2b 14 1f be cd 37 b8 3d 57 51 98 bd
       -0.15345763 -0.15535037 0.08995018 -0.07437389
000070 29 79 5c bd 3a 55 da 3d d4 19 59 3d 64 e0 a6 bc
       -0.053826485 0.10660787 0.053003147 -0.02037067
000080 c2 2d 44 bd e0 0d d2 3d 49 c8 71 3d ca ec 74 bd
       -0.0478952 0.10256553 0.059028897 -0.059796132
000090 4f e1 2e be 6b 25 03 be 28 e3 5e 3e f0 b0 17 3d
       -0.17078136 -0.12807243 0.2176634 0.037033975
0000a0 58 28 19 be db 6b 91 3e 3a b9 e0 3d f1 77 93 bc
       -0.14956796 0.284026 0.10972829 -0.018001528
0000b0 86 19 99 3d f1 cc bb bd 3c 2c f0 3d 13 84 eb bd
       0.07475571 -0.09169949 0.11727187 -0.114998005
0000c0 91 74 f5 3c db 3d 99 bd 6b e9 27 be c3 0f 08 3e
       0.02996281 -0.07482501 -0.16397636 0.13287263
0000d0 92 ff 9b bd 57 5a c2 bd 49 1f be 3c 10 17 18 be
       -0.076171055 -0.09489887 0.023208277 -0.14852548
0000e0 ac e5 0c be 2a 7f fe bd 37 1f 8e 3a d0 b9 ad bd
       -0.13759488 -0.12426598 0.0010843043 -0.084827065
0000f0 7c f4 93 3d 35 6b 5e 3e bb 41 9e 3d 79 49 1f be
       0.07224366 0.21720584 0.07727381 -0.15555371

fully_connected_3.weight f4 [4, 64]
000000 93 ad 00 3e 17 7c 4b 3e 4c 9c 4a 3e cd 7e 32 be
       0.12566213 0.19871555 0.19786185 -0.17431183
000010 6e 5a 17 3e 71 ab af bd 8b 7e 3e 3e 12 a7 3b bc
       0.1478059 -0.08577622 0.1860296 -0.011453407
000020 89 19 44 3e 76 b4 8a 3d ac 48 d2 be e0 2c 4a 3d
       0.19150366 0.067727014 -0.4107107 0.049359202
000030 36 29 8b 3d b8 aa 37 3e 75 00 df 3d 54 e9 0c be
       0.0679497 0.17936218 0.10888759 -0.13760883
000040 f8 92 34 be 3e 92 17 3e 68 ab 17 3d 70 2b fc 3d
       -0.17634189 0.1480188 0.0370287 0.123129725
000050 44 ea 6f 3d 81 4f 89 bb cb 2a 98 bd 72 4a 00 bc
       0.058573022 -0.004190386 -0.07430037 -0.007830249
000060 d0 95 39 3e 7a 7b 53 be d4 6b c1 bd 1e 14 1c be
       0.18123555 -0.20652571 -0.09444395 -0.15242049
000070 65 5a 89 3d 97 d3 62 3e 61 c9 29 be cc a5 a1 3d
       0.067066945 0.22151028 -0.16580726 0.07892951
000080 91 44 2a 3e ba 39 de 3d b4 a8 11 3d d1 8b e8 3e
       0.16627719 0.10850854 0.03556128 0.4541917
000090 05 50 eb 3d 2f 8c 70 3d 8f c0 b8 3d d6 fd 01 3e
       0.11489872 0.05872744 0.09021103 0.12694487
0000a0 74 18 72 3e bc 15 91 3d 44 bc 92 bd 36 58 1f 3d
       0.2364214 0.07084224 -0.07164815 0.038902484
0000b0 4d d3 e1 3d c4 d5 a2 bd 99 f1 04 3e ce 24 de 3d
       0.110266306 -0.07950929 0.12982787 0.10846864
0000c0 b6 99 0f be 16 9e 74 3e 8e 78 54 be 6b 99 f4 3e
       -0.1402348 0.2388843 -0.20749113 0.477733
0000d0 d4 e6 8b 3e 74 d2 1a be 7f cf 1a 3e 6d 90 88 be
       0.27324545 -0.15119344 0.15118216 -0.26672688
0000e0 a6 cd f6 bd 86 0c 03 bc b2 90 a5 3d 31 a8 05 3e
       -0.12050943 -0.007998591 0.08084239 0.13052441
0000f0 f5 44 f7 bd 29 3a 37 3e 9e 27 65 3d c5 7c 9a 3d
       -0.120736994 0.1789328 0.055945985 0.07543329
000100 53 14 24 3f 87 8b 59 3e 81 d0 c2 3e 7b b5 a2 bd
       0.6409351 0.21244632 0.380497 -0.07944771
000110 50 2f 56 3e 80 63 fb bd aa 06 a7 3d 2b b2 8c bd
       0.20916486 -0.122748375 0.08155568 -0.0686992
000120 91 e3 98 3c f9 ec af 3d 54 2c fb bc a7 cd 0c 3e
       0.0186632 0.08590121 -0.030660786 0.13750325
000130 c6 23 2e be 78 09 a2 3e 6a 82 cc bd 3e 1e f9 bc
       -0.17005834 0.3164785 -0.09985812 -0.030409928
000140 41 f5 73 bd a8 87 82 3e b7 65 38 be ec 2e 3d bd
       -0.059560064 0.25494123 -0.18007551 -0.046187326
000150 2c 4c 02 3e c5 37 39 3e 8d a0 91 bd db b8 84 3e
       0.1272437 0.1808768 -0.07110701 0.25922284
000160 e2 2b e8 3d a2 17 2f be 8e a1 a8 3d 68 8e d7 3d
       0.11336495 -0.17098859 0.08233939 0.10525209
000170 22 48 f3 bd dd 84 19 3e c3 31 f2 3d 2d 8f f1 3d
       -0.118789926 0.1499209 0.118258975 0.11794887
000180 f8 eb 97 bc 1b 7e 9d 3d 56 69 cf 3d 78 c3 56 3e
       -0.018545136 0.07690068 0.10127513 0.20973003
000190 3a c7 37 3e 53 4f ac be d5 f6 0e 3e 9f f8 f2 3d
       0.17947093 -0.3365427 0.13961346 0.11863827
0001a0 64 33 8b 3d 19 e4 e7 3d 82 92 36 3d 89 f1 21 3e
       0.06796911 0.11322803 0.044573314 0.15814795
0001b0 98 68 59 bd 81 be f9 bd fe 29 bd 3d cf 24 dc bd
       -0.053078264 -0.12194539 0.09236525 -0.10749208
0001c0 ee 07 3d 3d f0 26 ad 3d ee 2e 30 3e fd c5 59 3e
       0.04615014 0.08454692 0.17205402 0.21266933
0001d0 45 16 a5 3e 8f a3 ae 3d f0 0c 6d 3e db 62 ff 3d
       0.32243553 0.0852729 0.23149467 0.12470027
0001e0 55 95 a1 bd 8f 19 3b be bb a6 95 3d 0f 36 83 3e
       -0.07889811 -0.18271469 0.07307192 0.2562718
0001f0 5b 79 16 3d a1 47 fb 3c 5c ab b8 be b4 36 be 3a
       0.036736827 0.030673804 -0.36068237 0.0014512152
000200 5e 09 c0 3e 7f eb 8c 3e be d2 15 3f 2f 82 82 3d
       0.37507147 0.2752342 0.5852469 0.06372487
000210 8c 97 ee 3e 6b ec 2b be 4b 70 23 be 05 fb 18 bd
       0.46599996 -0.16789405 -0.15960805 -0.037348766
000220 1a f5 6b 3b fe 36 46 3d 4a 53 02 be 50 83 b8 3e
       0.0036004246 0.04839229 -0.12727085 0.36037683
000230 93 ff 7c 3e a4 67 b9 bd eb 49 06 be 02 e2 93 3d
       0.24706869 -0.09052971 -0.13114135 0.07220842
000240 af 6c d6 3e 2d da 12 3d cd b4 15 3d f1 eb 80 bd
       0.41879794 0.0358526 0.03654938 -0.06295002
000250 90 49 44 3d ad dc 86 3e 6b bb 87 be 27 5a 1f 3e
       0.047921717 0.26340237 -0.26510176 0.15561734
000260 59 99 90 3e c3 8f 8a be af eb 63 bd 70 94 a5 be
       0.28241995 -0.27062806 -0.055644687 -0.3233981
000270 e6 78 54 3e d1 20 2f 3e 6f 05 98 bb ef 5a 32 bd
       0.20749244 0.17102362 -0.0046393196 -0.043543752
000280 f1 80 5b be 7c 27 1e bd c0 5d 26 3e a3 a1 fb 3d
       -0.21435906 -0.038611874 0.162467 0.12286689
000290 96 37 98 3e 9a 1d 04 bf 42 3c 4a 3e 9a 45 2b 3e
       0.2972991 -0.5160767 0.19749549 0.1672577
0002a0 ae 30 b6 3e 21 33 b8 3d f5 cb 8b 3e 55 c3 05 3e
       0.35584015 0.08994127 0.27304044 0.13062795
0002b0 cc 6e da 3d c4 f7 dd 3d 1d 42 4e 3e 5d 73 55 3e
       0.10665664 0.10838273 0.20142408 0.20844789
0002c0 6c 7c 2e 3e ba 21 53 bd 22 0f c9 bd bf 69 e1 3e
       0.1703965 -0.051545836 -0.098173395 0.4402599
0002d0 61 e4 84 3d 47 51 1f be 46 60 fc 3d 07 59 4c bd
       0.06488872 -0.15558349 0.1232305 -0.04988959
0002e0 21 4c 85 be 32 32 a4 be b6 af 10 be e7 de 27 be
       -0.26034644 -0.32069546 -0.14129528 -0.16393624
0002f0 52 4e 0d bf 05 5d 3e 3e 73 69 ee be e0 4a 01 bd
       -0.5519763 0.18590172 -0.46564826 -0.031565547
000300 ce 5c b9 3d ec 7f a0 3d ea 93 32 be e9 9f f3 bd
       0.09050904 0.07836899 -0.17439237 -0.11895735
000310 4e b6 bd 3c df da 4f be 65 52 a9 be f8 ee f7 3c
       0.023158219 -0.20298336 -0.33070675 0.030265316
000320 d5 e6 28 3e eb f2 20 3e 55 c5 d0 3d 46 9b 82 bc
       0.16494305 0.15717666 0.10193888 -0.01594318
000330 86 b9 18 3e 43 52 53 3e 2c 62 57 be 1d 57 4e bc
       0.14914522 0.20636849 -0.21033543 -0.012594012
000340 bd b5 d5 3d b6 7e 06 be cb 36 fb 3d 96 a5 e2 3c
       0.104350545 -0.13134274 0.1226631 0.027666848
000350 1c d7 c5 3d 87 ca 51 3e 40 0e e8 bd 03 27 c2 3e
       0.096601695 0.20487414 -0.11330843 0.3792039
000360 3c a3 03 be a8 59 d9 bd 95 0a ad bd ae 31 94 3e
       -0.12855238 -0.10612804 -0.08449284 0.28944153
000370 a6 34 b3 3d 3d f0 d1 bc dc 74 bd be a4 a7 50 3d
       0.08750276 -0.02562725 -0.3700322 0.050941125
000380 b3 23 2a 3e 6b 59 ef 3d cb a9 3e bd 13 bd a8 3e
       0.1661518 0.11686977 -0.046548646 0.32956752
000390 52 7c 9e be 4e 3d c0 3d 6e d0 2c 3e 7e a7 59 3e
       -0.30954224 0.09386693 0.16876385 0.212553
0003a0 71 ec 55 3d 1e e5 3b 3e 19 c2 07 3e 1d bd d8 bd
       0.05222744 0.1834912 0.13257636 -0.105829455
0003b0 a9 46 82 3e b4 84 be be e8 c5 a8 3d 23 76 27 3d
       0.25444534 -0.3721062 0.082408726 0.04088415
0003c0 d0 e0 a1 3d 40 0d 2c 3d 6f e5 92 be 59 60 50 3d
       0.07904208 0.042004824 -0.2869067 0.050873134
0003d0 f8 35 9e 3c 97 19 46 be 5f ff 07 3e 1c 3d 19 3e
       0.019312844 -0.19345699 0.1328101 0.14964718
0003e0 a3 c6 74 3c 4e 2c 31 be f4 ad 61 be f8 1f 09 be
       0.014939937 -0.17302057 -0.22039014 -0.13391101
0003f0 a5 e7 8b bc 00 fe c4 3c dc 71 1c ba 00 46 6a ba
       -0.01707823 0.024046898 -0.0005967894 -0.00089368224

fully_connected_3.bias f4 [4]
000000 2a 6c 3f 3e 6b d0 19 3e 84 09 b2 3c 9f cb d0 3d
       0.18693605 0.15020911 0.021733053 0.10195088
