DDQN_params.pth (torch, 29855 bytes, 6 tensors)

fully_connected_1.weight f4 [64, 37]
0	0xba4b0be6	-0.00077456085
1	0xbd40c782	-0.047065265
2	0xbe99e0b3	-0.30054244
3	0x3caa6a79	0.020802723
4	0xbe308f77	-0.17242227
5	0xbe276725	-0.1634794
6	0x3d346059	0.044037197
7	0x3e6044c1	0.21901228
8	0x3d8dcc88	0.06923777
9	0x3e5ba95e	0.21451327
10	0xbdd4f770	-0.103987575
11	0xbdf0e44d	-0.11762295
12	0xbdcacaca	-0.0990196
13	0xbc9adebd	-0.018905038
14	0xbe05a58c	-0.13051432
15	0xbda89db2	-0.08233203
16	0x3da22154	0.07916513
17	0x3d7078fa	0.058709122
18	0xbe00e09b	-0.1258568
19	0xbd5eb0d1	-0.054367844
20	0x3d17e08c	0.03707938
21	0x3dd3e181	0.10345746
22	0x3d75caf1	0.060007993
23	0x3e0b82f0	0.13624167
24	0x3de0a596	0.10969083
25	0xbe07879d	-0.13235326
26	0x3e1408db	0.14456503
27	0x3d825f59	0.06365842
28	0xbe444488	-0.19166768
29	0xbdcd3d04	-0.100214034
30	0xbeee3c23	-0.46530256
31	0x3e8afc4a	0.27145606
32	0xbd45eefa	-0.04832361
33	0xbdcbc6a5	-0.09949998
34	0x3e436ad9	0.19083728
35	0xbd0200c2	-0.031739004
36	0xbcd0bc70	-0.025480479
37	0xbde19169	-0.11014063
38	0x3e635a64	0.2220245
39	0x3de39975	0.11113254
40	0x3be27402	0.006910802
41	0xbe83d5e0	-0.2574911
42	0xbc9e2082	-0.01930261
43	0xb94c64dc	-0.00019492529
44	0xbde0c917	-0.10975855
45	0xbe49bcdf	-0.19700955
46	0x3ef953b5	0.48696676
47	0x3e0e1646	0.13875684
48	0xbe3d40e1	-0.1848178
49	0xbabcd54b	-0.0014406828
50	0x3dcd813c	0.10034415
51	0x3c999d27	0.018751694
52	0xbd546cc1	-0.05186153
53	0x3dbda8ae	0.09260689
54	0x3e61768a	0.22017875
55	0xbeaf4100	-0.3422928
56	0xbe9f8c50	-0.31161737
57	0xbd5102e4	-0.051028147
58	0xbe4345d7	-0.1906961
59	0xbd9b2218	-0.07574862
60	0xbd29941b	-0.04140101
61	0x3d795016	0.06086739
62	0xbe3c2815	-0.18374665
63	0x3ce3bc34	0.027799703
64	0x3e6472ed	0.22309466
65	0xbea66df6	-0.3250577
66	0xbe0bf026	-0.13665828
67	0xbca3be5b	-0.01998823
68	0x3e2a6c57	0.16642891
69	0x3decfeee	0.115720615
70	0xbddda74b	-0.10822924
71	0xbd913867	-0.07090836
72	0x3df86b49	0.12129838
73	0x3c37714b	0.011196445
74	0x3d32f818	0.043693632
75	0x3e3c6e69	0.18401493
76	0xbe682534	-0.22670442
77	0xbd85cfef	-0.06533801
78	0x3dcfa29e	0.10138439
79	0xbe971fe6	-0.29516524
80	0xbdf455d3	-0.11930432
81	0x3e602202	0.21887973
82	0x3dd45c66	0.10369186
83	0xbe0b22d7	-0.13587509
84	0xbdf8bdcc	-0.12145576
85	0xbdde9ce3	-0.108697675
86	0xbb533c1f	-0.003223188
87	0xbe0cbe39	-0.13744439
88	0xbed998db	-0.42499432
89	0xbe306354	-0.1722539
90	0x3ddee449	0.10883386
91	0xbe0f4b4a	-0.13993564
92	0x3df84aa7	0.12123614
93	0x3e1b1257	0.15143715
94	0xbe400237	-0.18750845
95	0xbeefe061	-0.46850875
96	0x3e8adba3	0.27120695
97	0xbea51c2a	-0.3224805
98	0xbead4e38	-0.3384874
99	0xbe4db6f3	-0.20089321
100	0x3e48de9b	0.19616167
101	0x3daeb195	0.08529965
102	0xbe787457	-0.2426313
103	0x3a618bd0	0.00086039025
104	0xbf037b85	-0.5136035
105	0xbe416d7e	-0.18889424
106	0x3cae2009	0.02125551
107	0xbc7e2ee0	-0.015514106
108	0xbefd57e5	-0.4948112
109	0xbe505b22	-0.20347264
110	0x3c897fed	0.016784633
111	0x3e6fa9d9	0.23404635
112	0x3cd62739	0.02614175
113	0x3dbfcb6a	0.0936497
114	0x3dc876c3	0.09788277
115	0xbc46b220	-0.012127429
116	0xbd072625	-0.03299536
117	0x3e083628	0.13301909
118	0xbcc4975b	-0.023997953
119	0x3e97218b	0.2951778
120	0x3f4ef46e	0.8084172
121	0x3cc6db0d	0.024274373
122	0x3cc74649	0.024325507
123	0x3c90fd99	0.01769905
124	0xbcb379c0	-0.02190864
125	0xbc1666ae	-0.009179754
126	0x3d4af682	0.049551494
127	0xbd41fa66	-0.04735794
128	0xbda93d31	-0.082636245
129	0xbd99757b	-0.07493111
130	0x3d85625e	0.06512903
131	0x3d51b80a	0.051200904
132	0x3d7c25ad	0.061559368
133	0x3bf67b1c	0.007522
134	0x3cca34fe	0.024683472
135	0x3d31a305	0.04336836
136	0x3e2b8bc2	0.16752532
137	0xbda0e60b	-0.07856377
138	0xba1151f5	-0.00055435236
139	0x3c083413	0.008313197
140	0x3e56a512	0.20961407
141	0x3e5a9ef0	0.21349692
142	0x3e255f1a	0.1614956
143	0xbd470332	-0.04858703
144	0xbe2bfc47	-0.16795455
145	0xbe2cd62a	-0.16878572
146	0x3df46515	0.11933342
147	0x3c6fb22d	0.014629883
148	0xba43ce6c	-0.0007469419
149	0xbdb8aaa5	-0.09016923
150	0xbe1e14ee	-0.15437672
151	0xbe0d9103	-0.13824849
152	0x3df6968e	0.12040435
153	0x3ea9500e	0.3306889
154	0xbe2c3cdf	-0.16820095
155	0xbeeed09c	-0.4664353
156	0xbdf48c4e	-0.119408235
157	0xbfa33319	-1.2749969
158	0xbd38d3e7	-0.04512396
159	0x3ce0b65a	0.027430702
160	0x3d9fdef0	0.07806194
161	0xbd1319d8	-0.03591332
162	0xbdfafec6	-0.122556254
163	0xbdec2b3f	-0.11531686
164	0x3d39496f	0.045236047
165	0xbd815791	-0.0631553
166	0xbc52c8cb	-0.012865256
167	0x3de8067c	0.11329362
168	0xbdf13e53	-0.117794655
169	0xbd23c239	-0.039980147
170	0x3e4c334c	0.19941443
171	0x3d1179bf	0.035516497
172	0x3dbcea66	0.092243955
173	0x3cc743cd	0.024324322
174	0x3d1dc0c7	0.038513925
175	0x3dad4f95	0.08462445
176	0x3dc42e64	0.09579161
177	0x3e18a3ba	0.14906207
178	0x3dad26fe	0.08454703
179	0x3df47c88	0.11937815
180	0x3d4bbda5	0.049741406
181	0xbd0b055b	-0.033940654
182	0x3eb7975f	0.35857674
183	0x3caf1af2	0.021375153
184	0x3bb843ff	0.00562334
185	0x3df45d79	0.11931891
186	0xbdc99345	-0.098425426
187	0x3c56aade	0.013102261
188	0xbe1e0cd9	-0.15434588
189	0x3da5e225	0.08099774
190	0x3e8eb1eb	0.27870116
191	0xbe3d8355	-0.1850713
192	0xbe8a66c1	-0.2703152
193	0xbe6eec6d	-0.23332377
194	0xbf6a9299	-0.9162994
195	0xbd081a0f	-0.033227976
196	0xbdb9d325	-0.09073476
197	0x3caa6e8b	0.020804664
198	0xbde62fe3	-0.112396024
199	0x3cadd3c6	0.021219146
200	0x3d889fd5	0.066711105
201	0x3d4d9d21	0.050198678
202	0xbe4ab1d0	-0.19794393
203	0xbc5fd8b8	-0.01366251
204	0xbdebefd9	-0.11520357
205	0x3e1189c8	0.14212716
206	0xbcc4368f	-0.023951797
207	0x3d868941	0.06569148
208	0x3dc52f28	0.09628135
209	0x3dbad9f0	0.091235995
210	0x3c90667d	0.017626995
211	0xba689cd9	-0.000887347
212	0xbd2e9741	-0.042624716
213	0x3d6327c8	0.05545786
214	0x3da4c1ca	0.08044775
215	0x3c2c0ab6	0.010500601
216	0xbd6b8073	-0.057495546
217	0xbd86bb87	-0.06578737
218	0x3e18f4fa	0.14937201
219	0x3d3a8092	0.04553277
220	0xbd49364a	-0.04912404
221	0x3dd8dc70	0.1058892
222	0xbd319d37	-0.043362822
223	0x3dbdd677	0.092694215
224	0xbe7bc058	-0.24585092
225	0x3e21fac8	0.15818322
226	0x3c562fb4	0.013072897
227	0xbdd346de	-0.10316251
228	0x3d6ef111	0.058335368
229	0xbcd2d2fb	-0.025735369
230	0xbce54646	-0.02798761
231	0x3d9e30bd	0.0772414
232	0xbd371d93	-0.04470594
233	0x3d34b16b	0.04411451
234	0x3dae967c	0.08524796
235	0x3e7c252f	0.2462356
236	0x3e24366c	0.16036385
237	0xbe7f49ae	-0.2493045
238	0xbd6dc7bf	-0.05805182
239	0xbd65cb71	-0.05610222
240	0x3e412524	0.18861824
241	0x3e056f87	0.13030826
242	0x3d1fe1d2	0.03903372
243	0xbe5f315b	-0.21796171
244	0x3d503cc6	0.050839208
245	0xbe5e065a	-0.2168211
246	0x3eddc838	0.43316817
247	0xbe89c050	-0.26904535
248	0xbdb77bb2	-0.0895914
249	0xbb163460	-0.0022919402
250	0x3ce4b25e	0.027917083
251	0xbd91ecc1	-0.07125235
252	0x3e2dfd03	0.16991048
253	0xbd6d2450	-0.05789596
254	0xbe0b4861	-0.13601829
255	0xbe2b319e	-0.16718146

fully_connected_1.bias f4 [64]
0	0x3dcda4e0	0.10041213
1	0xbd29db1a	-0.041468717
2	0xbe2559c2	-0.16147521
3	0xbbce6bf1	-0.0062994887
4	0x3e40b4ab	0.1881892
5	0xbc9cfbbe	-0.019163009
6	0xbe133736	-0.1437653
7	0x3d31c405	0.04339983
8	0xbd5eb9dc	-0.054376468
9	0xbe3a393d	-0.18185897
10	0x3e390330	0.18067622
11	0x3e014d7b	0.12627213
12	0x3e327cac	0.17430371
13	0x3d68e2c8	0.0568569
14	0xbd35f63d	-0.044424284
15	0xbdf36400	-0.11884308
16	0x3d644ce6	0.0557374
17	0xbd07094f	-0.03296786
18	0x3c5e39c1	0.013563574
19	0xbe17e542	-0.14833549
20	0xbe19c2b8	-0.15015686
21	0x3d8a13f8	0.0674209
22	0x3c239395	0.009983917
23	0xbdb3f0bd	-0.087861516
24	0xbda056ad	-0.07829032
25	0x3e31fe39	0.17382134
26	0x3d077815	0.033073504
27	0xbe267580	-0.1625576
28	0x3e5a9dc6	0.21349248
29	0x3e5fa7e6	0.21841392
30	0xbce23c94	-0.027616777
31	0xbdb38500	-0.08765602
32	0x3e0de6ef	0.13857625
33	0xbcc288b0	-0.023746818
34	0xbe355994	-0.17709953
35	0x3d359ed5	0.044340927
36	0xbd1623bc	-0.036655173
37	0x3d09b5b0	0.033620536
38	0xbd266ccf	-0.04063111
39	0xbd9cf637	-0.07664149
40	0xbe225607	-0.1585313
41	0xbd75dcdc	-0.06002508
42	0xbdcbc5f1	-0.09949864
43	0x3e446734	0.19179994
44	0x3c0a1bee	0.0084295105
45	0xbdbb1d1b	-0.09136411
46	0x3d263df8	0.04058644
47	0xbe138a02	-0.14408115
48	0xbe046cf2	-0.12932184
49	0x3d51b0ed	0.05119412
50	0xbe19dd80	-0.15025902
51	0x3d42873f	0.047492262
52	0xbd91f4b9	-0.07126755
53	0xbd1698f6	-0.03676697
54	0xbe3e878f	-0.18606399
55	0x3c5d4bb1	0.013506816
56	0x3befeda7	0.0073220315
57	0xbdbbec53	-0.09175935
58	0xbdc9f46d	-0.09861074
59	0xbdb11795	-0.08647076
60	0x3ce884fb	0.028383723
61	0x3da32f52	0.0796801
62	0x3cf5e629	0.030016975
63	0x3c63faa4	0.013914738

fully_connected_2.weight f4 [64, 64]
0	0xbe69af4a	-0.22820774
1	0x3e09a7d4	0.13442928
2	0x3ecb7995	0.39741197
3	0xbe250c20	-0.16117907
4	0x3dc923f4	0.09821311
5	0xbe445165	-0.19171675
6	0xbf062dfe	-0.5241393
7	0xbd992cad	-0.07479224
8	0x3dbcf58e	0.09226523
9	0x3d49a985	0.049233932
10	0x3d83fab7	0.064443044
11	0xbec3be4e	-0.38231128
12	0xbee828db	-0.4534367
13	0x3e9d8041	0.30761912
14	0xbe3f918e	-0.18707868
15	0xbd1eebc0	-0.038799047
16	0xbcc92d9d	-0.024557883
17	0xbdab1ffd	-0.08355711
18	0x3d062c75	0.03275724
19	0xbe15ebcc	-0.1464073
20	0xbde74117	-0.11291712
21	0x3dfa5553	0.122233056
22	0x3db7cf1b	0.08975049
23	0xbe058dbf	-0.13042353
24	0xbd39b21d	-0.045335878
25	0xbdd396f6	-0.10331528
26	0x3e1938b4	0.14963037
27	0xbea91dc3	-0.3303052
28	0xbe0385cc	-0.12844008
29	0xbd165ce2	-0.036709674
30	0xbc63d193	-0.013904947
31	0xbee94af1	-0.45564988
32	0x3e219a0c	0.1578142
33	0xbc9d7897	-0.01922254
34	0xbc677dfb	-0.014129157
35	0xbe44a2a4	-0.19202667
36	0xbe453549	-0.19258608
37	0x3e283adf	0.16428708
38	0xbe2b87f9	-0.16751088
39	0xb985b475	-0.00025502188
40	0x3d0d92ff	0.034564015
41	0x3e615aec	0.2200734
42	0x3ea366b7	0.31914303
43	0xbec45138	-0.38343215
44	0x3e8b9ea6	0.27269477
45	0xbe01ca78	-0.12674892
46	0xbe26d48d	-0.16292019
47	0xbdcd442e	-0.1002277
48	0xbddf5ffd	-0.1090698
49	0xbe3c2af2	-0.18375757
50	0xbe19eea1	-0.15032436
51	0xbc9c637d	-0.019090408
52	0xbe0e750a	-0.13911834
53	0x37e1e3ac	2.6928108e-05
54	0x3d8e1433	0.069374464
55	0xbdacc94e	-0.08436833
56	0xbe02e694	-0.12783271
57	0x3ca911d8	0.020638391
58	0xbe760a94	-0.24027473
59	0x3d1551f6	0.036455117
60	0x3c1dcf67	0.009631968
61	0x3ea70295	0.32619157
62	0xbe860df3	-0.26182517
63	0xbdc5e108	-0.09662062
64	0x3d6ecdb5	0.058301646
65	0x3e0c8307	0.13721858
66	0xbdb1b711	-0.08677495
67	0xbd86af88	-0.06576449
68	0x3de40a41	0.11134768
69	0x3dac6ecd	0.08419571
70	0xbd9099c2	-0.07060577
71	0x3d987fb2	0.07446231
72	0xbcadca58	-0.02121465
73	0xbd968c35	-0.07350961
74	0xbd1cd168	-0.038285643
75	0x3daeda36	0.08537714
76	0xbe3078b7	-0.17233549
77	0x3d85f1e4	0.065402776
78	0xbdf6ee13	-0.12057128
79	0x3e21c098	0.15796125
80	0x3dcf2840	0.10115099
81	0x3dec81ce	0.11548196
82	0xbd84edb2	-0.06490649
83	0xbdc47b61	-0.09593845
84	0x3c33eb5b	0.010981406
85	0xbd0a5f45	-0.033782262
86	0x3de1337f	0.1099615
87	0xbd530240	-0.051515818
88	0xbcca0056	-0.024658363
89	0x3d54048d	0.051762152
90	0xbd3a9a3e	-0.045557253
91	0x3e5178cc	0.20456237
92	0x3e0209d9	0.12699069
93	0x3dbdf36f	0.09274947
94	0x3d817239	0.06320614
95	0xbdc5fc7a	-0.09667297
96	0xbb2f93b2	-0.0026790914
97	0x3c464f9c	0.012103941
98	0x3e299f1a	0.16564599
99	0xbec29c4b	-0.38009867
100	0xbce23bf4	-0.027616479
101	0xbd9fa281	-0.07794667
102	0x3e5efd30	0.21776271
103	0xbd501698	-0.050802797
104	0xbc854c8e	-0.016271856
105	0x3c127d6d	0.008941037
106	0xbc69aa9c	-0.014261868
107	0xbe0f271f	-0.13979767
108	0xbe7addd7	-0.24498688
109	0xbdbc4f1b	-0.09194776
110	0xbde1ed87	-0.11031633
111	0xbde5d90c	-0.11223039
112	0xbddcfc23	-0.10790279
113	0xbc8eb952	-0.017422352
114	0xbda36bd7	-0.07979553
115	0x3df233b3	0.11826267
116	0xbc93e403	-0.01805306
117	0xbc8130a8	-0.015770271
118	0xbdb5c16a	-0.088747814
119	0x3d590b74	0.05298944
120	0xbdb1fd03	-0.08690836
121	0x3e07698f	0.13223861
122	0x3e2febd1	0.171798
123	0x3e4aa08d	0.19787808
124	0xbe014759	-0.12624873
125	0x3b5d084f	0.0033726876
126	0x3cbed726	0.02329595
127	0xbcefc80c	-0.029270194
128	0xbde58c58	-0.11208409
129	0xbd72577d	-0.059165467
130	0xbd391b0c	-0.04519181
131	0xbd6eea24	-0.058328763
132	0x3d8715d5	0.06595961
133	0x3dc832d2	0.09775318
134	0x3c69e845	0.014276569
135	0xbc2d6385	-0.010582809
136	0x3d29e2c6	0.041476034
137	0xbe696cc5	-0.22795399
138	0x3d61ef02	0.055159576
139	0xbd3677cc	-0.04454784
140	0x3e1001e6	0.14063224
141	0x3de1a9e9	0.11018736
142	0xbd98d1ff	-0.074619286
143	0xbbd2ce14	-0.006433258
144	0xbe312f7c	-0.1730327
145	0x3dfc7a28	0.12327987
146	0x3c71c49b	0.014756347
147	0x3cf3d7cb	0.029765984
148	0xbe043835	-0.12912066
149	0xbd7e1525	-0.062031884
150	0xbd8ddcdf	-0.069268934
151	0x3dfb7478	0.12278074
152	0xbd209ef8	-0.039214104
153	0x3e86d7c7	0.263365
154	0x3de81491	0.11332048
155	0xbe64ca40	-0.22342777
156	0x3dba7982	0.09105207
157	0x3ebb5de2	0.36595064
158	0x3d2dbca5	0.042416234
159	0x38ebe9e8	0.00011249242
160	0xbd9dead8	-0.077108085
161	0xbe221170	-0.15826964
162	0xbe69acd7	-0.2281984
163	0x3e7c21fe	0.24622342
164	0x3e4416fa	0.1914939
165	0xbd883349	-0.06650407
166	0x3e75177e	0.23934743
167	0x3e2117bc	0.1573171
168	0x3d9c922f	0.0764507
169	0xbe853bca	-0.26022178
170	0x3dd9d493	0.106362484
171	0xbe19bf92	-0.15014485
172	0x3bec5510	0.0072122887
173	0x3d26ed08	0.040753394
174	0xbd00a8ef	-0.031411108
175	0xbe111220	-0.1416707
176	0x3d4f12a3	0.050554883
177	0xbdb808e0	-0.08986068
178	0xbced08e1	-0.028934898
179	0x3da52b50	0.08064902
180	0xbdcb4cb9	-0.09926743
181	0xbe89d842	-0.26922804
182	0xbe89acc4	-0.26889622
183	0xbd8fac5a	-0.07015295
184	0xbd9b8689	-0.0759402
185	0xbe505452	-0.20344666
186	0x3e5240ac	0.20532483
187	0x3e82a6aa	0.2551778
188	0xbd6d569f	-0.057943936
189	0x3dc8d2a2	0.098058
190	0x3d2ae2ea	0.04172031
191	0x3e1d377b	0.15353195
192	0xbd98c881	-0.07460118
193	0xbe859905	-0.26093307
194	0x3e82c2b0	0.2553916
195	0x3c37a7a1	0.011209399
196	0xbce2431d	-0.027619893
197	0x3db3eb66	0.08785133
198	0xbd40a8fd	-0.04703616
199	0xbdb1451e	-0.08655761
200	0xbdd38251	-0.1032759
201	0xbd1c8eed	-0.038222242
202	0xbca82e49	-0.020529883
203	0x3e03b9a1	0.1286378
204	0xbd3b2932	-0.045693584
205	0xbca9124a	-0.020638604
206	0xbd4cd4e2	-0.05000771
207	0xbda8e06b	-0.08245929
208	0xbd90d6b3	-0.070722006
209	0xbe0af2f5	-0.13569243
210	0xbd542997	-0.051797476
211	0xbd912d6e	-0.07088743
212	0xbd5978dd	-0.05309378
213	0x3e6540bb	0.22387974
214	0x3e9f883f	0.31158635
215	0x3da6909a	0.08133049
216	0x3bdeb234	0.006796146
217	0x3e2e6c1d	0.1703343
218	0x3d62b635	0.055349547
219	0xbea75966	-0.32685393
220	0xbdb75ea0	-0.08953595
221	0xbe201948	-0.15634644
222	0xbdbf4cae	-0.09340797
223	0xbd9aa8b6	-0.0755171
224	0xbe634906	-0.22195825
225	0xbaf644fd	-0.0018788871
226	0x3e07e5b6	0.13271222
227	0x3e47569a	0.1946663
228	0xbe587c42	-0.2114115
229	0x3e28479a	0.16433564
230	0x3e496803	0.19668584
231	0xbd681cc5	-0.05666806
232	0x3d110255	0.035402615
233	0x3d967472	0.07346429
234	0x3dcd6b5c	0.10030243
235	0x3e0a8bf1	0.13529946
236	0xbe02ade7	-0.12761651
237	0x3d297e80	0.041380405
238	0x3e206de7	0.15666924
239	0x3e747621	0.23873188
240	0xbe0c4ab2	-0.13700369
241	0xbd3e71e0	-0.04649532
242	0xbe55718a	-0.20844093
243	0x3da80032	0.08203162
244	0xbe4d96ad	-0.2007701
245	0x3e002130	0.1251266
246	0x3c82bab7	0.015958173
247	0xbd8df1a5	-0.06930856
248	0xbe7a0766	-0.24416885
249	0xbe205bda	-0.15660039
250	0xbe30da18	-0.17270696
251	0x3e8f1b16	0.27950352
252	0xbdf16c61	-0.1178825
253	0xbd323e4d	-0.043516446
254	0xbe6a751b	-0.22896235
255	0xbd98ad6d	-0.07454953

fully_connected_2.bias f4 [64]
0	0xbcaa38a2	-0.020778958
1	0xbd2faf2c	-0.042891666
2	0x3d2e1a23	0.042505395
3	0xbcb6fa34	-0.022336103
4	0x3e11a20e	0.14221975
5	0xbe5ec3d2	-0.21754387
6	0xbe04d140	-0.12970448
7	0x3d301f25	0.04299845
8	0x3da7491d	0.08168242
9	0x3e508738	0.20364082
10	0xbdac1b70	-0.08403671
11	0x3d85cae9	0.06532843
12	0x3d95b3e1	0.073097
13	0xbd7f79c0	-0.06237197
14	0xbdbc4373	-0.091925524
15	0x3da36ba9	0.07979519
16	0x3d7920ca	0.060822286
17	0xbdd59b76	-0.104300424
18	0xbd423dc3	-0.04742218
19	0x3da3589a	0.07975884
20	0x3e19dbf0	0.15025306
21	0x3e813c7c	0.25241458
22	0xbd6827b4	-0.05667849
23	0xbd9f46aa	-0.0777715
24	0xbdb7fe15	-0.08984009
25	0xbdb4c5b1	-0.08826769
26	0x3d8af075	0.06784145
27	0xbddf3da0	-0.10900426
28	0xbd5d9f5e	-0.054107063
29	0x3db7268e	0.089429006
30	0x3d100a75	0.035166223
31	0xbe32f266	-0.1747528
32	0x3d24b9af	0.040216144
33	0x3c9c23b4	0.019059993
34	0xbd5283bb	-0.05139516
35	0xbdcc6e3c	-0.09981963
36	0xbdeb28a1	-0.11482359
37	0xbdda7ade	-0.10667966
38	0x3e8636d2	0.262137
39	0xbdfa1cb2	-0.122125044
40	0xbd03ad45	-0.032147665
41	0x3e8f058e	0.27933925
42	0x3e730db7	0.237357
43	0xbcb2fad0	-0.021848112
44	0x3c903545	0.017603526
45	0xbd419323	-0.04725946
46	0xbd96a31e	-0.07355331
47	0xbe080f39	-0.13287057
48	0x3c135f6b	0.008994917
49	0xbe158f27	-0.1460539
50	0xbdd01469	-0.10160143
51	0x3e11778e	0.14205763
52	0xbd3758f4	-0.044762567
53	0xbdb7de13	-0.08977904
54	0x3d6ad395	0.057330687
55	0xbdaeaa04	-0.08528522
56	0xbe0e8435	-0.1391762
57	0xbe047778	-0.12936199
58	0x3c5f7869	0.013639548
59	0x3b19f97d	0.0023494654
60	0xbc8a53ea	-0.016885716
61	0x3e518ed6	0.20464644
62	0x3e0ad3b4	0.13557321
63	0xbdda1188	-0.10647875

fully_connected_3.weight f4 [4, 64]
0	0xbeae76a0	-0.3407488
1	0x3d972977	0.07380956
2	0x3e0aa347	0.13538848
3	0xbcfcfe5b	-0.030883005
4	0x3d2bbd0c	0.041928336
5	0xbe40cf0b	-0.1882898
6	0x3dc9e527	0.098581605
7	0x3cd577f0	0.026058167
8	0x3cff0bd1	0.031133564
9	0x3da1554a	0.07877596
10	0xbd6e3238	-0.05815336
11	0x3e87ac75	0.26498762
12	0x3dc0641f	0.093940966
13	0x3e0696aa	0.13143411
14	0xbe2ec95b	-0.17068999
15	0xbdd405d8	-0.10352677
16	0xbe87b14d	-0.26502457
17	0x3e2ff092	0.17181614
18	0x3d8c6f3a	0.06857152
19	0x3e35d412	0.1775668
20	0x3d500b6c	0.050792143
21	0x3d32af42	0.04362417
22	0x3d024240	0.031801462
23	0xbd59b42d	-0.053150345
24	0xbec0a3df	-0.37625024
25	0xbe1db4fc	-0.15401071
26	0xbcc3a6d9	-0.02388327
27	0xbd570a3d	-0.0525
28	0x3ddca4bf	0.1077361
29	0x3d051380	0.0324893
30	0xbddebb09	-0.10875518
31	0x3ed3e709	0.41387203
32	0x3e622980	0.22086143
33	0x3e57c9ee	0.21073124
34	0x3e91e139	0.28492144
35	0x3d505d7f	0.050870415
36	0x3d2f1cfe	0.04275226
37	0xbe93704d	-0.28796616
38	0x3dd36d81	0.103236206
39	0xbccfe433	-0.025377369
40	0x3eb9b055	0.36267343
41	0x3dbc90ce	0.09207307
42	0x3de6d380	0.11270809
43	0x3d4edbfa	0.050502755
44	0xbbea7344	-0.007154854
45	0xbd9ad353	-0.07559838
46	0x3e7abceb	0.24486129
47	0x3e88aa29	0.26692322
48	0xbd017df8	-0.031614274
49	0x3e2dc9a9	0.16971458
50	0xbdefd6fb	-0.11710926
51	0x3e1ee9ae	0.15518829
52	0x3e3f6ac9	0.18693079
53	0xbc2ffa50	-0.0107408315
54	0x3d65ee36	0.05613538
55	0xbd66d9d3	-0.056360077
56	0xbd3b2afa	-0.045695283
57	0x3d0d26e2	0.03446091
58	0xbd401d86	-0.046903156
59	0x3da6b764	0.08140448
60	0xbe5c4510	-0.2151072
61	0x3e1d7de7	0.15380059
62	0x3e5d3646	0.21602735
63	0x3df4b08c	0.11947736
64	0x3cd6924f	0.026192812
65	0xbd30b72b	-0.043143433
66	0x3e922da4	0.28550446
67	0xbeca5f93	-0.39526042
68	0xbda4b372	-0.08042039
69	0xbdfbf65a	-0.12302847
70	0xbc63ea5a	-0.013910854
71	0xbd09dced	-0.033657957
72	0xbd884847	-0.06654411
73	0x3df9fe69	0.12206728
74	0x3b394ced	0.002827461
75	0x3ec1d229	0.37855652
76	0x3a508eba	0.0007955838
77	0x3e00be75	0.12572654
78	0xbe08b31d	-0.13349576
79	0x3e5ca07d	0.21545596
80	0xbf06d462	-0.5266782
81	0x3d147b39	0.036250327
82	0xbe6b3cb4	-0.22972375
83	0x3e959349	0.29213932
84	0x3e0fc568	0.14040148
85	0x3e025f38	0.12731636
86	0xbcb01366	-0.021493625
87	0x3da4d661	0.08048702
88	0x3d1e4414	0.038639143
89	0xbe0bf6f0	-0.13668418
90	0x3deb04cb	0.114755236
91	0x3b52f4c9	0.003218936
92	0xbd85e8a3	-0.065385126
93	0x3d86f5c1	0.065898426
94	0x3d51d257	0.051225986
95	0x3ea3aa8b	0.3196605
96	0x3e17e58c	0.14833659
97	0xbe564efb	-0.20928566
98	0x3e66056a	0.22463003
99	0xbdb77a77	-0.08958905
100	0x3cf340d9	0.029694008
101	0xbeab33d9	-0.33437994
102	0x3e1f022d	0.15528174
103	0xbe202425	-0.15638788
104	0x3e86aa10	0.26301622
105	0x3de81f7e	0.11334132
106	0x3d1a0613	0.03760345
107	0x3e326819	0.17422523
108	0xbd8d584a	-0.069016054
109	0x3ca43c0b	0.020048162
110	0x3ea29129	0.31751373
111	0xbdb3c65a	-0.08778067
112	0x3e0d7e20	0.13817644
113	0xbd43fc66	-0.047848128
114	0x3e090f0f	0.1338465
115	0x3cf4f280	0.02990079
116	0x3db4c165	0.088259496
117	0x3da8c9fa	0.08241649
118	0x3e03e9c4	0.12882143
119	0x3e617803	0.22018437
120	0xbce7464c	-0.028231762
121	0x3d117bd7	0.035518494
122	0x3e8cdaff	0.2751083
123	0xbc582e0b	-0.013194571
124	0xbd8dd1fd	-0.06924818
125	0xbbd15c60	-0.006389186
126	0x3cb3eaae	0.02196249
127	0xbe1b6683	-0.15175824
128	0xbdcb8c82	-0.09938909
129	0x3dc31e95	0.095273174
130	0x3e966fb6	0.29382104
131	0x3e0b145b	0.13581984
132	0x3e6891b6	0.22711834
133	0xbe44b325	-0.19208963
134	0x3dce56a6	0.10075121
135	0xbe2f16bb	-0.17098515
136	0x3d5783aa	0.0526158
137	0x3d6808df	0.056649085
138	0xbe2d73ee	-0.16938755
139	0x3dad81fe	0.0847206
140	0x3e57b176	0.2106379
141	0xbe8df56e	-0.2772631
142	0xbe3737f3	-0.17892437
143	0x3e567221	0.20941974
144	0xbd2eff02	-0.042723663
145	0xbe20a80c	-0.15689105
146	0xbe09cc93	-0.13456945
147	0x3d507d07	0.050900485
148	0x3da5a3aa	0.08087857
149	0x3e0a3f98	0.13500822
150	0x3e5c4ab2	0.21512869
151	0x3e27c760	0.1638465
152	0xbd8e9b48	-0.06963211
153	0xbde78670	-0.11304939
154	0x3e1ff2a8	0.1561991
155	0xbd9972e9	-0.074926205
156	0x3d84cdc2	0.06484558
157	0x3e3a7fe2	0.18212846
158	0x3d26b1be	0.040696852
159	0xbdaeb7eb	-0.08531173
160	0x3e3cb26c	0.18427438
161	0xbd26c192	-0.040711947
162	0x3eccc54a	0.3999427
163	0x3d958374	0.07300463
164	0x3e6a2615	0.2286609
165	0xbd8d1fa6	-0.06890802
166	0x3dd586f1	0.10426129
167	0xbe28a6a4	-0.16469818
168	0x3e5331ba	0.20624438
169	0x3e1ee15b	0.15515654
170	0x3e04ae9a	0.1295723
171	0xbbfc79ce	-0.00770495
172	0x3e57b258	0.21064126
173	0xbd1bae4c	-0.03800802
174	0x3df2fa43	0.1186414
175	0x3dc83e52	0.09777512
176	0x3ea2c483	0.31790552
177	0xbe4e8f0e	-0.20171759
178	0xbe77a61e	-0.24184462
179	0x3e4a0864	0.19729763
180	0xbcd2769c	-0.025691323
181	0x3ed087d4	0.4072863
182	0x3d32168e	0.04347854
183	0x3e74f787	0.23922549
184	0xbdf53899	-0.11973686
185	0xbda48e3a	-0.0803494
186	0x3eb8143f	0.35952947
187	0xbc6191da	-0.013767684
188	0xbd201b52	-0.039088555
189	0x3d0a98ac	0.033837005
190	0xbe211ddf	-0.15734051
191	0x3e5ddb9b	0.21665804
192	0xbec4ec8f	-0.3846173
193	0x3da24128	0.07922584
194	0x3dcb8ebc	0.09939334
195	0xbe0b61fa	-0.13611594
196	0x3c9764ca	0.018480677
197	0xbe132a1e	-0.14371535
198	0xbd8bf402	-0.0683365
199	0x3e142af6	0.14469513
200	0x3d9a5ee5	0.07537631
201	0x3e41fe3b	0.18944637
202	0x3d9e2c0f	0.07723247
203	0xbd492a37	-0.049112525
204	0x3e4594c8	0.19295037
205	0xbde3c510	-0.11121571
206	0xbbbcc344	-0.005760582
207	0x3b30c8da	0.0026975186
208	0x3d3d1e3d	0.046171416
209	0x3ee13d27	0.43991968
210	0x3ee6a874	0.45050395
211	0x3e830c52	0.25595337
212	0x3d850f52	0.06497063
213	0x3e3e8d16	0.18608508
214	0xbc0c0d48	-0.008548088
215	0x3e810f2d	0.2520689
216	0x3dc8f958	0.098131835
217	0xbe52ac4f	-0.20573543
218	0x3d0d3750	0.03447658
219	0x3d36ff87	0.044677284
220	0x3e2ea6c7	0.17055808
221	0xbe7c02cb	-0.2461044
222	0xbe43a74a	-0.19106784
223	0x3e919ad1	0.28438428
224	0x3d972229	0.073795624
225	0x3dbd16ee	0.09232889
226	0x3a722509	0.0009237086
227	0x3b5a0bc7	0.003327118
228	0xbd94d6a8	-0.07267505
229	0x3d90f6a2	0.070782915
230	0x3df3892b	0.11891397
231	0xbe5936ce	-0.21212313
232	0x3e42a204	0.19007117
233	0x3dea099b	0.11427613
234	0x3e01b12e	0.12665245
235	0xbe2b084e	-0.16702387
236	0x3eb0170a	0.34392577
237	0xbebf367e	-0.37346262
238	0x3e8f617a	0.28004056
239	0x3dc25a5c	0.09489891
240	0x3e015d08	0.12633145
241	0xbe48e2af	-0.19617723
242	0x3eacf4a4	0.33780396
243	0x3d919d09	0.0711003
244	0x3cf4b3e8	0.029870942
245	0xbcc1b304	-0.023644932
246	0x3dca2b8c	0.09871587
247	0x3eeda842	0.46417433
248	0xbe03c327	-0.12867413
249	0xbe22922c	-0.15876073
250	0xbeac0283	-0.33595666
251	0xbda2e6a7	-0.0795415
252	0xbd3ede09	-0.046598468
253	0x3dc7f1a1	0.09762884
254	0x3a002209	0.0004887884
255	0x3e2ede81	0.17077066

fully_connected_3.bias f4 [4]
0	0x3e4be519	0.19911613
1	0x3e32a032	0.17443922
2	0x3dd4d047	0.10391288
3	0x3da0eef3	0.07858076
