dueling_params.pth (torch, 48527 bytes, 12 tensors)

feauture_layer.0.weight f4 [64, 37]
0	0xbda2ac58	-0.07943028
1	0x3e8b0e06	0.27159137
2	0xbe430488	-0.19044697
3	0xbe1451c3	-0.14484315
4	0xbde43448	-0.11142784
5	0x3e0c003d	0.13671966
6	0xbe3a0c9b	-0.18168871
7	0x3e2f4002	0.17114261
8	0x3d937c47	0.072014384
9	0x3cd43105	0.02590228
10	0xbd924ea5	-0.071439065
11	0x3d182819	0.037147615
12	0xbdb0073a	-0.08595128
13	0xbe475040	-0.19464207
14	0xbe10a487	-0.14125262
15	0x3e719dbe	0.2359533
16	0xbe08cec3	-0.13360123
17	0x3d3f9cb2	0.046780296
18	0xbea0ebfc	-0.31430042
19	0xbe8922f8	-0.26784492
20	0xbdcac0d7	-0.099000625
21	0x3e99fe04	0.3007661
22	0xbc22801c	-0.009918239
23	0xbd92f690	-0.07175934
24	0xbdfbf4f0	-0.123025775
25	0x3c96ba0c	0.018399261
26	0x3dcf722b	0.10129198
27	0xbe00e544	-0.12587458
28	0xbd29407b	-0.04132126
29	0xbeb945c5	-0.36186042
30	0xbc04b880	-0.008100629
31	0x3dcd2f17	0.10018747
32	0xbe26c745	-0.16286953
33	0x3d0be012	0.034149237
34	0xbea51bc6	-0.32247752
35	0xbd77e20e	-0.060518317
36	0xbd54a3ef	-0.05191415
37	0x3dd4cba7	0.10390406
38	0x3ddb9bff	0.10723113
39	0x3dc13039	0.09433026
40	0xbdc016a8	-0.09379321
41	0xbe99d450	-0.30044794
42	0xbdb77156	-0.08957164
43	0xbe76ad12	-0.24089459
44	0xbcfd1b48	-0.030896798
45	0x3e1fb482	0.15596202
46	0x3ecb7a81	0.397419
47	0x3d4c0c26	0.049816273
48	0xbde51a63	-0.111866735
49	0x3d308ba4	0.04310192
50	0x3dc894e4	0.09794024
51	0x3d9a2f3c	0.075285405
52	0xbd0cd272	-0.034380384
53	0x3d991374	0.074744135
54	0x3e149400	0.14509583
55	0xbe0d9e54	-0.13829929
56	0xbe90a318	-0.2824943
57	0xbe7ee221	-0.24890949
58	0xbd74caa9	-0.059763584
59	0xbd925b06	-0.071462676
60	0x3dbd0384	0.09229186
61	0x3df00cc6	0.11721186
62	0xbe33f8cf	-0.17575382
63	0x3de9a2e6	0.114080235
64	0x3d8a7052	0.06759705
65	0x3d83929a	0.064244464
66	0x3f1c5755	0.6107076
67	0xbdb34fa9	-0.08755428
68	0x3db7f9e3	0.08983209
69	0x3e2647ca	0.16238323
70	0x3b294318	0.0025827345
71	0xbe0ede76	-0.1395205
72	0x3d38cb22	0.045115598
73	0x3d9eed17	0.07760065
74	0x3e4ee939	0.20206155
75	0xbdaa4279	-0.0831346
76	0x3e1be4c8	0.15223992
77	0xbe0d888c	-0.1382162
78	0xbd9897c5	-0.07450823
79	0xbe98f178	-0.29871726
80	0xbe19bc20	-0.1501317
81	0x3dddaa28	0.1082347
82	0x3ed9d068	0.42541814
83	0xbeabd493	-0.3356062
84	0xbcccf8e0	-0.025021017
85	0xbd06c710	-0.032904685
86	0x3de90913	0.11378684
87	0xbdcde27d	-0.10052965
88	0x3d2c2dce	0.04203587
89	0xbe345da2	-0.17613843
90	0x3e1101e5	0.14160879
91	0x3e15206d	0.1456315
92	0x3e368c79	0.17827024
93	0x3da6b17b	0.081393205
94	0xbe340fab	-0.17584102
95	0x3c9ebc05	0.019376764
96	0x3bd72743	0.0065659597
97	0x3de1f7ad	0.110335685
98	0xbe89f696	-0.26945943
99	0xbdbda3ed	-0.09259782
100	0x3d43ff1a	0.047850706
101	0x3e67766b	0.22603767
102	0x3c2a5b55	0.010397752
103	0xbe49f7ee	-0.19723484
104	0xbe93a628	-0.28837705
105	0x3e50a475	0.20375235
106	0xbe051eca	-0.13000026
107	0xbdd36c5c	-0.10323402
108	0xbd24c48d	-0.040226508
109	0x3ded7c7b	0.115960084
110	0xbd817a7e	-0.06322192
111	0x3e8b897e	0.27253336
112	0xbecc87f0	-0.39947462
113	0x3d2123ba	0.039340712
114	0x3e216e7b	0.15764801
115	0xbf221f34	-0.6332886
116	0xbe532e2b	-0.2062308
117	0x3e11c850	0.1423657
118	0xbc3540e6	-0.011062836
119	0x3e548a5c	0.20755905
120	0x3e03b070	0.12860274
121	0xbe5ae0be	-0.21374795
122	0xbcfe9439	-0.031076537
123	0x3e5d9986	0.21640596
124	0xbde0bd9e	-0.109736666
125	0xbd953ef9	-0.07287402
126	0x3d2ce15a	0.0422071
127	0xbe29a8fa	-0.16568366
128	0xbe6b1167	-0.22955857
129	0xbdaaa14e	-0.08331548
130	0xbf09f7a2	-0.5389348
131	0x3d273dd8	0.040830463
132	0x3cfc208a	0.030777235
133	0xbe339687	-0.1753789
134	0xbcd700c5	-0.026245484
135	0xbd872554	-0.06598917
136	0xbe0a3ae1	-0.13499023
137	0x3e28dc75	0.16490348
138	0xbab75623	-0.0013987463
139	0x3db31ebb	0.08746096
140	0x3ea1b86e	0.3158602
141	0x3e2e7314	0.17036086
142	0x3e5b08a2	0.21390012
143	0xbe71d306	-0.23615655
144	0xbf46dcfc	-0.77680945
145	0x3b46d15c	0.003033719
146	0x3e06acf8	0.1315192
147	0x3c1d1197	0.009586713
148	0xbdd8d655	-0.105877556
149	0xbda1e0fd	-0.07904241
150	0xbe4830c0	-0.19549847
151	0xbe133b00	-0.14377975
152	0xbcf1d353	-0.029519713
153	0x3cff2434	0.031145193
154	0xbdef3edd	-0.11681912
155	0x3d844f7e	0.064604744
156	0xbd6e40cd	-0.058167268
157	0xbe4c9d7d	-0.19981952
158	0xbdd27f17	-0.10278147
159	0x3d0a67f0	0.03379053
160	0xbd22e558	-0.0397695
161	0xbd512cb6	-0.05106803
162	0x3a92596c	0.0011165566
163	0xbe0e60be	-0.13904092
164	0x3ca395e1	0.019968929
165	0x3d3ebca3	0.046566617
166	0xbdc21d13	-0.09478202
167	0xba7d6594	-0.00096663204
168	0xbdf91c5a	-0.12163611
169	0xbd0b91d3	-0.034074616
170	0x3d88a887	0.06672769
171	0x3cbaa2ac	0.022782646
172	0x3dd4767d	0.10374162
173	0xbdda93be	-0.10672711
174	0x3c02b5a6	0.007977879
175	0x3e17fc88	0.14842427
176	0x3db30123	0.08740451
177	0x3e9e7b0c	0.30953252
178	0xbcbd28c5	-0.02309073
179	0xbeab0cc4	-0.33408177
180	0x3e430558	0.19045007
181	0x3e834a0b	0.25642428
182	0x3f44dcce	0.7689942
183	0x3c0d9bcf	0.008643105
184	0x3cb927e1	0.022602024
185	0x3d4b5d38	0.049649447
186	0xbda1dfdf	-0.07904028
187	0xbc4a4998	-0.012346648
188	0xbdc844f5	-0.097787775
189	0x3e38dc1a	0.18052712
190	0x3e59c149	0.21265139
191	0x3e05e599	0.13075866
192	0xbecd3836	-0.40081948
193	0xbe1a3a89	-0.15061392
194	0xbf8da528	-1.1066027
195	0xbda43cea	-0.08019431
196	0xbe3b8ed2	-0.183162
197	0x3dbdfd46	0.09276824
198	0xbdb1185f	-0.086472265
199	0xbe20b74a	-0.15694919
200	0xbb21832f	-0.0024644842
201	0x3dabae9c	0.083829135
202	0xbd810e9a	-0.06301613
203	0xbe220edb	-0.1582598
204	0xbdc84ed9	-0.09780664
205	0x3db95ccd	0.090509035
206	0xbd0921a8	-0.033479363
207	0x3e2129c6	0.15738592
208	0xbcb24005	-0.021759043
209	0xbd73a72d	-0.059485603
210	0xba23844a	-0.0006237669
211	0xbdb5ef62	-0.08883549
212	0x3dfb4a07	0.12269979
213	0xbd0eb543	-0.034840833
214	0xbe3d87c2	-0.18508819
215	0x3d83b563	0.06431081
216	0xbe2d20be	-0.16907021
217	0x3c4d15b5	0.012517382
218	0xbdf5b3e8	-0.11997205
219	0xbedc594a	-0.43036872
220	0x3d0cf22d	0.034410644
221	0x3d946ba5	0.07247094
222	0x3dffc084	0.12487891
223	0xbdd598eb	-0.104295574
224	0xbdc88f07	-0.09792905
225	0xbd2d930a	-0.042376556
226	0xbe89ba1c	-0.26899803
227	0x3de06561	0.109568365
228	0xbe37726d	-0.17914744
229	0xbdfe96dc	-0.12431118
230	0xbe2d4f6e	-0.16924831
231	0x3e0e174d	0.13876076
232	0x3e361669	0.17781986
233	0x3d4a2b87	0.049357917
234	0xbdc1ef4f	-0.094694726
235	0xbdbb5986	-0.091479346
236	0x3d5c35fa	0.053762414
237	0xbec436ec	-0.38323152
238	0xbe16c356	-0.14722952
239	0x3e3d15e7	0.18465386
240	0xbd3eb675	-0.046560723
241	0x3e7dd2c5	0.24787433
242	0xbd1a68b3	-0.037697505
243	0xbe180a18	-0.148476
244	0x3d7eeb0c	0.062235877
245	0xbe07f69c	-0.13277668
246	0x3d3bdeb9	0.0458667
247	0xbddb3c9d	-0.107049204
248	0x3d716ce4	0.058941737
249	0xbe05b22b	-0.13056247
250	0xbe822ba3	-0.25423917
251	0x3dfd7a3d	0.12376831
252	0x3de8eee6	0.11373691
253	0xbda732c7	-0.08163982
254	0xbe67329d	-0.22577901
255	0xbddd09cc	-0.10792884

feauture_layer.0.bias f4 [64]
0	0x3e01840b	0.12648027
1	0xbd7e0f3e	-0.062026255
2	0xbdf4b159	-0.11947889
3	0xbd8a7ef4	-0.06762496
4	0x3e059319	0.13044395
5	0xbd1cc32b	-0.038272064
6	0xbe0bbd95	-0.13646539
7	0xbc7d6208	-0.015465267
8	0xbd5c0df7	-0.053724255
9	0xbdf2b713	-0.11851325
10	0x3e4dc333	0.20093994
11	0x3e18c9c2	0.14920714
12	0x3dbacde8	0.09121305
13	0x3e00d53d	0.12581344
14	0xbd405664	-0.04695739
15	0xbd03e878	-0.03220412
16	0x3c6b5e7e	0.01436579
17	0xbd0a046f	-0.033695634
18	0xbdcd3308	-0.10019499
19	0xbe366f43	-0.1781588
20	0xbe056411	-0.13026454
21	0x3cfd4dc7	0.030920876
22	0xbca0f714	-0.019649066
23	0xbe1f5e65	-0.15563352
24	0xbdf62058	-0.12017888
25	0x3e6a27f6	0.22866806
26	0xbd0ed3c4	-0.034869924
27	0xbbfefc3f	-0.007781535
28	0x3e2f4d2d	0.17119284
29	0x3e228d25	0.15874155
30	0xbd55b499	-0.052174184
31	0xbe5e01bb	-0.21680348
32	0x3dca1d7f	0.09868907
33	0xbdca61c7	-0.09881931
34	0xbe1da5ff	-0.15395354
35	0xbcd75dee	-0.026289906
36	0xbcaa7ff6	-0.02081297
37	0x3d033d39	0.03204081
38	0xbd5558bc	-0.052086577
39	0xbdc25a67	-0.09489899
40	0xbdc3bd06	-0.09557538
41	0x3c6f0a4a	0.014589855
42	0xbdb683df	-0.08911871
43	0x3dc223be	0.094794735
44	0x3ad55553	0.0016276039
45	0xbe2e8348	-0.17042267
46	0x3c4b29c9	0.012400099
47	0xbe275b61	-0.16343452
48	0xbdce7d66	-0.100825116
49	0x3c93ef37	0.018058402
50	0xbe2ca758	-0.16860712
51	0x3d445beb	0.047939222
52	0x3c688fcf	0.014194443
53	0xbdf7388a	-0.12071331
54	0xbe2d5790	-0.16927934
55	0x3d1a2bb1	0.037639324
56	0x3db83e43	0.089962505
57	0x3c2d4016	0.010574361
58	0xbdc5c010	-0.09655774
59	0xbe245e0a	-0.16051498
60	0x3d0a393c	0.03374599
61	0x3d442162	0.0478834
62	0x3ce76adb	0.028249195
63	0x3d9aa7fa	0.0755157

feauture_layer.2.weight f4 [64, 64]
0	0xbe2f0141	-0.17090322
1	0x3e1fe1c7	0.15613471
2	0xbe01e0b7	-0.12683378
3	0xbd361336	-0.044451915
4	0x3e1b23ce	0.15150377
5	0xbcb0b369	-0.021569924
6	0x3a9cf2a0	0.0011974163
7	0x3d0a10c9	0.033707414
8	0x3de01017	0.10940569
9	0x3d690a89	0.056894813
10	0x3d54d589	0.051961455
11	0xbd1bf261	-0.038072947
12	0xbe4175a7	-0.18892537
13	0xbb9d6dba	-0.00480434
14	0xbe4336af	-0.19063829
15	0x3d5e867e	0.05432748
16	0xbd9c6c06	-0.07637791
17	0xbeb38545	-0.35062614
18	0xbd228cea	-0.039685167
19	0xbd09876c	-0.033576414
20	0xbdfc5b8a	-0.12322147
21	0xbe49bc0f	-0.19700645
22	0x3da23a1f	0.07921242
23	0x3e0f2fb6	0.13983044
24	0xbd871e32	-0.06597556
25	0xbe930805	-0.28717056
26	0x3e5ea3d3	0.21742181
27	0x3c70ea96	0.014704367
28	0xbe0407c1	-0.12893583
29	0xbe2c7f6f	-0.16845487
30	0x3e14916d	0.145086
31	0xbd0d8316	-0.03454884
32	0x3e55b719	0.20870627
33	0xbd627860	-0.05529058
34	0x3e0a138b	0.13484018
35	0x3d4e1f6d	0.05032294
36	0xbd0967e4	-0.033546343
37	0x3d9029a0	0.07039189
38	0x3d635489	0.05550054
39	0xbd9b1c6d	-0.07573781
40	0xbe08cf44	-0.13360316
41	0xbddd1c9f	-0.10796475
42	0x3e54247a	0.2071704
43	0xbd5a48d4	-0.05329211
44	0xbe0c8043	-0.13720803
45	0xbc92c1ce	-0.017914679
46	0xbe5d3659	-0.21602763
47	0x3e2d5ad8	0.16929185
48	0xbec577b1	-0.3856788
49	0x3ca894d5	0.020578781
50	0xbe441aeb	-0.19150893
51	0xbb8dc5a3	-0.0043265386
52	0xbceb492f	-0.02872142
53	0x3d473cd2	0.048641987
54	0xbd990bb2	-0.07472934
55	0x3cfbf22e	0.030755129
56	0x3d17fd4f	0.03710681
57	0xbcd1cfc7	-0.025611771
58	0x3ce5a5ee	0.028033223
59	0x3e1a7f80	0.150877
60	0x3e091ea0	0.13390589
61	0x3e0e2a5b	0.13883345
62	0xbe221601	-0.15828706
63	0xbe4c7eaa	-0.19970194
64	0x3da30f73	0.07961931
65	0x3e112514	0.141743
66	0x3da8276c	0.08210644
67	0x3e237082	0.15960887
68	0x3daecb09	0.0853482
69	0x3dea69b8	0.114459455
70	0x3c28c68e	0.010301245
71	0x3e3ea224	0.18616539
72	0x3d0fb5a6	0.035085343
73	0x3cc90a1f	0.024540959
74	0x3c73db5d	0.014883843
75	0x3dddf2af	0.10837304
76	0x3c7f2c12	0.015574472
77	0x3dcd10af	0.10012948
78	0x3ddf1d67	0.1089428
79	0xbdfd0622	-0.12354685
80	0x3e2f53af	0.17121767
81	0x3d73e35d	0.059543002
82	0xbdff141f	-0.1245501
83	0xbc844c68	-0.016149715
84	0x3cfe55aa	0.031046707
85	0xbd4ee107	-0.05050757
86	0x39b7a6a5	0.0003502864
87	0xbe368a2c	-0.17826146
88	0x3d1581b8	0.036500663
89	0x3d8f28c4	0.06990197
90	0xbe32ed17	-0.17473255
91	0xbd13c81b	-0.036079507
92	0x3d28de32	0.041227527
93	0xbd7564b1	-0.05991048
94	0xbda84b60	-0.08217502
95	0xbe75bff0	-0.23999
96	0x3d1a6878	0.037697285
97	0x3cf448da	0.029819895
98	0x3dc70e07	0.097194724
99	0xbe044a3f	-0.12918948
100	0xbdbb45ca	-0.091441706
101	0x3c615678	0.013753526
102	0x3e2f37e1	0.1711116
103	0xbd831fbc	-0.06402537
104	0x3c45f4de	0.012082307
105	0x3e2d9a0f	0.169533
106	0x3d1a1ac2	0.037623174
107	0xbd6a2cc4	-0.057171598
108	0x3d1377b8	0.036002845
109	0xbd2a0e3a	-0.041517474
110	0xbd910b5b	-0.07082244
111	0xbc81ef51	-0.015861185
112	0xbd98268a	-0.07429226
113	0xbe017ac0	-0.12644482
114	0x3d47fe0d	0.048826266
115	0x3dc97849	0.09837396
116	0xbd9dadaa	-0.076991394
117	0x3d5457e6	0.05184164
118	0x3e21819e	0.15772101
119	0x3da86cd2	0.08223881
120	0xbdb13a38	-0.086536825
121	0x3e13393e	0.14377305
122	0x3dbd18c7	0.092332415
123	0xbe18918e	-0.14899275
124	0xbe07d3d8	-0.13264406
125	0x3c9c4190	0.019074231
126	0xbd1e626a	-0.038668074
127	0xbdfd0a60	-0.123554945
128	0xbd40ec78	-0.047100514
129	0x3da0fd6d	0.07860837
130	0x3cb51e86	0.022109281
131	0x3d905b65	0.07048682
132	0x3db24c15	0.08705918
133	0xbe16c2b1	-0.14722706
134	0xbe677bfb	-0.22605889
135	0x3cc04bc0	0.02347362
136	0x3e2ba11e	0.1676068
137	0xbd868626	-0.065685555
138	0x3d64a190	0.05581814
139	0x3dc5e4b6	0.09662764
140	0x3d491a6e	0.04909747
141	0x3dc6af09	0.09701354
142	0x3e6c7d1a	0.23094597
143	0x3cebe53f	0.028795836
144	0xbd7bba8a	-0.061457194
145	0xbdea45d9	-0.11439104
146	0x3df9f0dc	0.122041434
147	0xbdaaeb13	-0.08345618
148	0xbdafe623	-0.08588817
149	0x3d6402b3	0.055666637
150	0xbe1c40f7	-0.15259157
151	0xbc2a24fc	-0.010384794
152	0xbe6faebf	-0.23406504
153	0xbde5543e	-0.111977085
154	0x3e9628d3	0.2932802
155	0xbe9821c9	-0.29713276
156	0xbe113803	-0.14181523
157	0xbdd3b547	-0.1033731
158	0x3d22a238	0.039705485
159	0x3d5d23a3	0.053989064
160	0xbd94225e	-0.072331175
161	0xbdb6ea3e	-0.08931397
162	0xbdf2e2a3	-0.11859634
163	0x3dd36f53	0.10323968
164	0x3e1e5fb8	0.15466201
165	0x3e242fec	0.16033906
166	0x3d2d2271	0.042269174
167	0xbbeb8c74	-0.007188374
168	0x3e44d53b	0.19221966
169	0xbe0fc6a6	-0.14040622
170	0x3dc44aa2	0.095845476
171	0xbd9f7c5f	-0.07787394
172	0xbcbd4829	-0.023105698
173	0xbc7129ba	-0.014719421
174	0x3dc26d74	0.09493533
175	0xbe386653	-0.18007784
176	0x3de962f2	0.113958254
177	0xbe8d1418	-0.27554393
178	0xbe203990	-0.15646958
179	0xbc1100e5	-0.008850311
180	0xbdee087a	-0.116227105
181	0xbddc8e7a	-0.10769363
182	0xbe86207b	-0.26196656
183	0xbd0c4c97	-0.03425273
184	0x3d847560	0.064677
185	0xbcd84920	-0.026402056
186	0x3e607145	0.21918209
187	0x3e0714e4	0.13191563
188	0xbca61289	-0.02027251
189	0xbc252b99	-0.010081195
190	0x3cbe7755	0.023250261
191	0x3d577545	0.05260207
192	0xbdb97526	-0.090555474
193	0xbdcb8199	-0.09936828
194	0x3d14358f	0.03618389
195	0x3dc830db	0.097749434
196	0x3d875fe7	0.06610089
197	0xbd4b1422	-0.049579747
198	0xbd5e0e2e	-0.05421274
199	0xbddecbfe	-0.10878752
200	0xbe3fbf45	-0.18725307
201	0xbd10b5b1	-0.035329524
202	0xbdb81e28	-0.08990127
203	0x3dc2ffb9	0.095214315
204	0xbdd40349	-0.10352189
205	0x3e3be8a0	0.18350458
206	0x3dbca00b	0.09210213
207	0xbdb2c562	-0.08729054
208	0x3c3f0366	0.011658525
209	0xbde152c4	-0.110021144
210	0x3c133d85	0.008986835
211	0xbc762d20	-0.015025407
212	0x3c93753c	0.018000238
213	0x3e209cc0	0.15684795
214	0x3e037198	0.12836301
215	0xbc9c7e67	-0.019103242
216	0x3e3ea29b	0.18616717
217	0x3c65bc89	0.014022001
218	0x3d6e3b4e	0.058162026
219	0x3d51e70e	0.05124574
220	0x3e35680b	0.1771547
221	0xbe39cbca	-0.18144146
222	0xbe60d77f	-0.21957205
223	0x3d41a80e	0.04727941
224	0xbe704805	-0.23464973
225	0x3cf3eb6c	0.029775344
226	0x3d9ba98d	0.076006986
227	0x3db91063	0.09036329
228	0xbe3f85c2	-0.18703368
229	0x3cb2aa30	0.021809667
230	0xbcb30a8f	-0.02185562
231	0x3c8922ab	0.016740164
232	0xbe13c2d4	-0.1442979
233	0x3e076a68	0.13224185
234	0xbd8b2762	-0.06794621
235	0xbd3337e6	-0.04375448
236	0xbde2b840	-0.11070299
237	0x3d9fef64	0.07809332
238	0xbc8693b6	-0.016427856
239	0xbdff9ced	-0.12481103
240	0x3ca8dc8a	0.020612974
241	0x3d7d1d49	0.061795507
242	0xbd9e3e89	-0.077267714
243	0x3cda5559	0.026652025
244	0xbbb1c9bb	-0.0054256595
245	0x3e909290	0.28236818
246	0x3e165df6	0.14684281
247	0x3da2d85e	0.07951425
248	0xbe205d46	-0.15660581
249	0x3d049bdb	0.032375198
250	0x3b8acc52	0.0042357827
251	0x3db9be31	0.09069479
252	0xbe507e53	-0.20360689
253	0x3daed592	0.08536829
254	0xbd30cadd	-0.043162216
255	0x3c9657b6	0.01835237

feauture_layer.2.bias f4 [64]
0	0xbd1a24f9	-0.037632916
1	0xbd8ba77f	-0.06819057
2	0x3ddf72a5	0.109105386
3	0x3dde2ff5	0.10848991
4	0x3e286b6d	0.1644723
5	0xbe041138	-0.12897193
6	0xbdf7a033	-0.120911025
7	0x3dc15cbf	0.09441518
8	0x3b046e36	0.0020207292
9	0x3d199e0e	0.03750425
10	0xbd97e38b	-0.07416447
11	0x3de0345d	0.109474875
12	0x3da13f40	0.07873392
13	0xbd6e2fbe	-0.058151
14	0xbdc11960	-0.09428668
15	0x3d23f3be	0.040027373
16	0xbce11cd0	-0.02747956
17	0xbd87e43e	-0.066353306
18	0xbdcc5376	-0.099768564
19	0x3d16676f	0.036719736
20	0x3da4244d	0.08014736
21	0x3de79423	0.11307552
22	0xbdc34882	-0.09535314
23	0xbe134fbe	-0.14385888
24	0xbd74c83f	-0.059761282
25	0xbd6f1ba6	-0.058375977
26	0x3e2c26cb	0.16811673
27	0xbdd56454	-0.10419527
28	0xbc76d659	-0.015065753
29	0x3e207585	0.1566983
30	0x3e20a2fe	0.15687177
31	0xbe179e37	-0.14806448
32	0xbcc8e067	-0.024521066
33	0x3d8d9d00	0.06914711
34	0x3d5543ee	0.052066736
35	0xbd9ee6ac	-0.07758841
36	0xbde9b021	-0.11410547
37	0xbd8abbce	-0.06774102
38	0x3d63e160	0.055634856
39	0xbdb387e6	-0.08766155
40	0xbda33c9f	-0.07970547
41	0x3e399ad1	0.18125464
42	0x3da4c975	0.080462374
43	0xbd40af78	-0.04704234
44	0xbad6adb5	-0.0016378673
45	0xbd4bde47	-0.049772527
46	0xbdf5e6cc	-0.12006912
47	0xbe168b07	-0.14701472
48	0x3e099417	0.13435398
49	0xbe3f5387	-0.18684207
50	0xbd3861a5	-0.045014996
51	0x3e4f6e6c	0.20256966
52	0xbda81e08	-0.08208853
53	0xbd261bbf	-0.040553804
54	0xbcdb71d0	-0.026787668
55	0xbded2f05	-0.11581234
56	0xbe1ee417	-0.15516697
57	0xbdba4589	-0.09095294
58	0xbd30182a	-0.042991795
59	0xbd818860	-0.063248396
60	0x3dbb19b0	0.09135759
61	0x3df4658d	0.11933432
62	0x3d249098	0.040176958
63	0xbe343a84	-0.17600447

value_stream.0.weight f4 [32, 64]
0	0xbd41fdd1	-0.0473612
1	0xbdd0309d	-0.10165522
2	0xbe05aade	-0.13053462
3	0xbe1f6c7d	-0.15568729
4	0xbd80a016	-0.06280534
5	0x3e59923e	0.21247193
6	0x3e97fa92	0.29683357
7	0xbe280499	-0.16408004
8	0xbdcf0190	-0.1010772
9	0xbc7f0c23	-0.015566858
10	0xbe1d38e2	-0.1535373
11	0x3e239151	0.15973403
12	0xbe46a885	-0.19400223
13	0xbcd5e674	-0.026110865
14	0xbd1c5030	-0.03816241
15	0xbe667515	-0.22505601
16	0x3e02ddac	0.12779874
17	0x3d3df17c	0.046372876
18	0x3d767e3c	0.06017898
19	0x3decbced	0.11559472
20	0x3ad9dd8d	0.0016621813
21	0x3d40d0cb	0.04707412
22	0x3d3142ff	0.043276783
23	0xbe641b98	-0.22276151
24	0xbe9ad1f3	-0.30238304
25	0xbe2f8567	-0.17140733
26	0x3d0c4da3	0.034253728
27	0xbe7da934	-0.24771577
28	0xbd249271	-0.04017872
29	0xbc9347b0	-0.01797852
30	0xbe09b816	-0.1344913
31	0xbd856aeb	-0.065145336
32	0xbe4adfbf	-0.19811915
33	0x3e373942	0.17892936
34	0xbc4c738c	-0.01247872
35	0xbdedd5e7	-0.11613064
36	0x3dbf8457	0.09351414
37	0xbc1703cb	-0.009217213
38	0x3b2dccb8	0.0026519727
39	0x3e07e628	0.13271391
40	0x3c122463	0.008919808
41	0xbe03dc49	-0.12877001
42	0xbbbd0897	-0.0057688463
43	0xbd264dc8	-0.04060152
44	0x3bd27dde	0.006423696
45	0x3dfdb35b	0.12387725
46	0xbda2b6a4	-0.07944992
47	0x3d52c6d0	0.051459134
48	0xbe3e8573	-0.18605594
49	0x3e8f5d05	0.28000656
50	0xbdafaed9	-0.085782714
51	0xbea7b3d4	-0.32754385
52	0x3e1b2173	0.15149479
53	0xbe56c2c4	-0.20972735
54	0xbb650296	-0.0034944168
55	0xbe52ca66	-0.20585021
56	0xbe4efd4c	-0.20213813
57	0xbea33a84	-0.3188058
58	0xbe13aea6	-0.14422092
59	0x3dd3e699	0.103467174
60	0xbe94af53	-0.29040012
61	0x3d8dfa9c	0.069325656
62	0x3e9a5f78	0.30150962
63	0xbd89a8f9	-0.06721682
64	0x3ebe60b7	0.37183163
65	0xbc8c0790	-0.01709345
66	0x3c1e977e	0.009679673
67	0x3ce2bdbe	0.027678367
68	0x3b5b7c37	0.0033490786
69	0xbe1ec5cb	-0.1550514
70	0xbd8174ed	-0.0632113
71	0xbd846cbc	-0.06466052
72	0xbe988a58	-0.29793048
73	0xbcefd980	-0.029278517
74	0x3e44a775	0.19204505
75	0xbdb7310c	-0.08944902
76	0xbe02ae85	-0.12761886
77	0x3e22899a	0.15872803
78	0xbbdb4421	-0.006691471
79	0xbbf54b83	-0.0074858083
80	0xbaea4f82	-0.0017876478
81	0x3e54209e	0.20715567
82	0xbe6984f7	-0.22804628
83	0xbe304c8d	-0.17216702
84	0x3dbe016b	0.09277614
85	0x3e6b448c	0.22975367
86	0xbe30bd4c	-0.17259711
87	0x3d54454d	0.051823903
88	0xbace3600	-0.0015732646
89	0xbde33536	-0.110941336
90	0x3d9373cc	0.07199821
91	0x3e8a5174	0.2701527
92	0xbe908e9d	-0.28233805
93	0x3dd3f58d	0.103495695
94	0x3e28da2d	0.16489477
95	0x3dfa818e	0.12231742
96	0x3d1dbfbe	0.038512938
97	0xbdf8cbd2	-0.12148251
98	0x3e24cb31	0.16093136
99	0xbdc7d8b4	-0.0975813
100	0x3d7f5209	0.062334094
101	0xbd603aa9	-0.054743443
102	0x3eb222af	0.34792086
103	0x3dae99b5	0.08525411
104	0x3e105bc8	0.14097512
105	0xbbe0b6ed	-0.006857744
106	0xbe1075c2	-0.14107421
107	0xbe30dbfa	-0.17271414
108	0x3d468116	0.04846295
109	0xbd8481e0	-0.06470084
110	0x3e358be3	0.17729144
111	0x3cdcf6d1	0.02697316
112	0x3cdb9921	0.026806416
113	0x3d4ba244	0.049715295
114	0x3d2b2bfc	0.041789994
115	0xbdf1a8f2	-0.11799802
116	0x3e38c73c	0.18044752
117	0xbd24dae9	-0.04024783
118	0xbcd2e218	-0.025742576
119	0xbdc02265	-0.0938156
120	0xbec4d0cb	-0.38440546
121	0x3d630e8a	0.055433787
122	0x3e7749c4	0.24149233
123	0xbe21cbdc	-0.15800422
124	0xbe3f5ea7	-0.18688451
125	0xbd807381	-0.062720306
126	0x3c7660f5	0.015037765
127	0xbea675ee	-0.32511848
128	0x3d1d438c	0.038394496
129	0x3cb97c36	0.022642236
130	0x3e11611c	0.141972
131	0xbd3190ae	-0.043350868
132	0x3df24ed6	0.11831443
133	0x3e9a90c1	0.30188563
134	0x3e49a3b6	0.19691357
135	0xba96fbad	-0.0011519097
136	0x3d901f97	0.07037275
137	0x3bf6ee06	0.007535699
138	0xbd847272	-0.06467141
139	0x3e0322c4	0.12806231
140	0x3df8daa8	0.1215108
141	0xbe2f82ef	-0.17139791
142	0xbd611476	-0.054951154
143	0x3e26cc72	0.16288927
144	0xbe03e7c4	-0.1288138
145	0xbdfcd446	-0.123451754
146	0x3e578cfc	0.21049875
147	0xbe8d62b7	-0.27614376
148	0xbdb11e31	-0.08648337
149	0x3e1f60f5	0.1556433
150	0x3ca7c1ed	0.020478213
151	0x3daefa74	0.08543864
152	0x3dacb89f	0.08433651
153	0xbe66f5b7	-0.2255467
154	0x3ce59cb9	0.028028833
155	0xbe6e1fc5	-0.23254307
156	0x3e77f383	0.24213986
157	0x3e07dfa7	0.1326891
158	0xbd094e45	-0.03352191
159	0x3d52f139	0.05149958
160	0xbe7061e7	-0.23474847
161	0x3cb50437	0.022096736
162	0x3e05d0f2	0.13067988
163	0x3e5f2cc2	0.21794418
164	0x3e68502c	0.22686833
165	0xbda6b430	-0.08139837
166	0x3e3cdaa9	0.18442787
167	0x3d1eb64a	0.038748063
168	0x3b72d418	0.0037052687
169	0x3e1bc244	0.15210825
170	0x3e04bbc8	0.12962258
171	0x3e6ef408	0.23335278
172	0xbe6da134	-0.23206025
173	0xbd833ead	-0.06408439
174	0x3dc9c6f4	0.098524004
175	0xbe2a4c85	-0.16630752
176	0x3da3ccb2	0.07998027
177	0xbd8bd0e4	-0.06826952
178	0xbddc9d84	-0.10772231
179	0x3e1b8343	0.15186791
180	0xbe364645	-0.17800243
181	0xbcbd6206	-0.02311803
182	0x3d404644	0.04694201
183	0x3ebc9994	0.3683592
184	0xbe6a6a24	-0.22892052
185	0xbe6a63b8	-0.22889602
186	0xbd2d7edb	-0.042357307
187	0xbe2580bd	-0.16162391
188	0xbe342fff	-0.17596434
189	0x3c35377b	0.011060591
190	0xbdd35e81	-0.103207596
191	0x3d9ef99d	0.07762454
192	0x3dc26401	0.094917305
193	0x3e230289	0.15918936
194	0xbd42f313	-0.047595095
195	0xbe5c53ec	-0.21516389
196	0xbe3aa4ba	-0.182269
197	0xbbce0444	-0.0062871296
198	0x3d85d983	0.06535628
199	0x3ddc8101	0.10766793
200	0xbc5c39cb	-0.013441513
201	0x3dd023bd	0.101630665
202	0x3d3d5a3d	0.046228636
203	0xbdf366fc	-0.11884877
204	0x3e22db2b	0.15903918
205	0x3d60c7ef	0.05487817
206	0x3d72be00	0.05926323
207	0x3bea8a82	0.0071576247
208	0x3d891125	0.06692723
209	0x3e1a3f2d	0.15063162
210	0xbd4acdae	-0.049512558
211	0x3e1db307	0.15400325
212	0x3dadc44c	0.08484706
213	0x3d9e6be7	0.077354245
214	0x3d5551bb	0.052079897
215	0x3d827d7e	0.06371592
216	0xbd57f68f	-0.05272537
217	0xbe72a9fb	-0.23697655
218	0xbe5da2b7	-0.21644102
219	0x3e6e1371	0.23249604
220	0x3de0c60a	0.10975273
221	0xbe4b35eb	-0.19844787
222	0xbe2a4ced	-0.16630907
223	0x3e41f771	0.18942048
224	0x3cd16153	0.025559103
225	0x3e0ed353	0.13947801
226	0xbc6b4edc	-0.014362063
227	0x3d6526b5	0.055945117
228	0xbdde2320	-0.10846543
229	0xbc1538be	-0.009107767
230	0x3dfe4011	0.124145634
231	0x3e8daa3d	0.27668944
232	0xbebfa9b7	-0.3743417
233	0x3d59ca57	0.053171482
234	0x3e631f77	0.22179972
235	0xbe9e1d69	-0.30881813
236	0xbdc2a237	-0.09503596
237	0xbe17fcd5	-0.14842542
238	0x3dc6fa6c	0.09715733
239	0x3da1e36e	0.07904707
240	0xbcea353a	-0.028589834
241	0xbd31d652	-0.043417282
242	0xbd6aaa92	-0.057291575
243	0x3c4aa3a8	0.01236812
244	0x3e2a65d2	0.16640404
245	0xbd8871cc	-0.0666233
246	0x3e43fb74	0.1913889
247	0x3dcdab1c	0.10042402
248	0xbe91d785	-0.2848474
249	0xbe03033d	-0.12794204
250	0x3d002751	0.031287495
251	0xbe72d8b1	-0.23715474
252	0xbeada449	-0.33914402
253	0x3b9b10f0	0.0047322437
254	0xbdca637d	-0.09882257
255	0xbd955f9a	-0.07293625

value_stream.0.bias f4 [32]
0	0xbd039b85	-0.032130737
1	0x3d701f76	0.058623753
2	0x3e6a7c20	0.22898912
3	0xbd5d2208	-0.053987533
4	0xbc38789b	-0.011259223
5	0x3d0c206a	0.0342106
6	0xbda553d5	-0.0807263
7	0xbd95d250	-0.073155046
8	0xbde34257	-0.11096638
9	0x3c23ab9a	0.0099896435
10	0x3e8e9226	0.27845877
11	0xbd71ab35	-0.059001166
12	0x3e9d7859	0.3075588
13	0xbd4bd507	-0.049763706
14	0xbd690191	-0.05688626
15	0x3d01fb88	0.03173402
16	0xbde0583f	-0.109543316
17	0xbd2c93fe	-0.042133324
18	0x3e11e364	0.14246899
19	0x3e1ec26a	0.1550385
20	0x3e6c904d	0.23101921
21	0x3b7b0c47	0.0038306878
22	0x3d8e5562	0.06949879
23	0x3d86fd48	0.06591278
24	0x3e025818	0.12728918
25	0x3ded5b27	0.115896516
26	0x3e6e2fbb	0.23260395
27	0x3d18754f	0.03722125
28	0x3e46ee21	0.19426776
29	0xbdccde75	-0.10003368
30	0xbd6c28c4	-0.057656065
31	0xbde3d3cb	-0.11124381

value_stream.2.weight f4 [4, 32]
0	0x3deec79b	0.116591655
1	0xbe3bb7ba	-0.18331805
2	0xbd0de1c9	-0.034639154
3	0x3dd1d7f5	0.10246269
4	0xbdaa521e	-0.08316444
5	0x3e4f9952	0.20273331
6	0xbe30b095	-0.1725486
7	0x3de61de9	0.11236174
8	0xbea570d5	-0.32312647
9	0xbdf1b846	-0.118027255
10	0x3e4c85c1	0.19972898
11	0xbe161864	-0.14657742
12	0x3df78b90	0.12087166
13	0x3d26e713	0.040747713
14	0xbdcac9e8	-0.09901792
15	0xbe168ee7	-0.1470295
16	0x3c9d0950	0.01916948
17	0xbe90976c	-0.28240526
18	0x3e2eaef2	0.17058924
19	0x3d2b3768	0.041800886
20	0x3e21e87d	0.15811343
21	0x3dfc0b1d	0.12306807
22	0x3e272f91	0.16326739
23	0x3e48b2a6	0.19599399
24	0x3e0b3ddc	0.13597816
25	0xbda8d32b	-0.08243402
26	0x3e327aab	0.17429607
27	0x3de03fb8	0.109496534
28	0x3e21ba87	0.15793811
29	0x3d793b1d	0.06084739
30	0x3d98ea22	0.07466532
31	0x3e06fece	0.13183138
32	0x3eb9e848	0.3631003
33	0x3c123468	0.008923627
34	0x3e1fc67d	0.15603061
35	0xbebde59a	-0.37089235
36	0x3e2106f2	0.15725306
37	0xbc014346	-0.007889574
38	0xbdc0b16d	-0.09408841
39	0x3e55ac67	0.20866548
40	0x3e55a603	0.2086411
41	0xbf14fd96	-0.5819944
42	0x3e86b6cb	0.26311335
43	0x3e042e8c	0.12908381
44	0x3e97cab6	0.29646844
45	0xbe727474	-0.23677236
46	0xbea61d2c	-0.3244413
47	0x3ddc7b41	0.10765696
48	0x3e0de813	0.1385806
49	0xbe4dd3d0	-0.20100331
50	0x3ea68747	0.32525083
51	0x3d5ab61e	0.053396337
52	0x3e7513ef	0.23933385
53	0x3e3c23cf	0.18373035
54	0xbd9bd8bd	-0.07609699
55	0x3e120a0e	0.14261648
56	0xbc37f33f	-0.011227428
57	0x3e28a0db	0.16467611
58	0x3d091c7f	0.03347444
59	0x3eca9290	0.39564943
60	0x3dfdec2b	0.12398561
61	0xbe1a1d86	-0.15050325
62	0xbd8178b2	-0.06321849
63	0x3e9aa6ad	0.3020529
64	0xbe43e056	-0.19128546
65	0xbda8789e	-0.08226131
66	0x3e7791a0	0.24176645
67	0xbe1b6121	-0.1517377
68	0x3e20c6ef	0.15700887
69	0x3e9a4899	0.30133513
70	0xbe03d459	-0.12873973
71	0x3dd440e3	0.10363939
72	0x3c6afc15	0.014342328
73	0xbe866b74	-0.26253855
74	0x3e60532e	0.2190673
75	0x3e5a77c3	0.21334748
76	0x3e0c650d	0.13710423
77	0x3eabfd2e	0.33591598
78	0xbe1a7aca	-0.15085903
79	0xbda75e90	-0.08172333
80	0x3dccf6ba	0.10007997
81	0xbc8af8a3	-0.016964262
82	0xbc788f69	-0.01517091
83	0x3e62f9ec	0.2216565
84	0x3e6b257e	0.22963521
85	0xbe8308d4	-0.25592673
86	0x3e248f0d	0.16070195
87	0x3e94acb6	0.29038018
88	0x3e5420ea	0.2071568
89	0x3ea96685	0.3308603
90	0x3e7dfb7d	0.24802966
91	0xbe8dd27d	-0.27699652
92	0x3e0ac968	0.13553393
93	0x3eb7d75a	0.35906488
94	0xbe5e69bc	-0.21720022
95	0x3e4a5605	0.19759376
96	0xbe68c8fd	-0.22732921
97	0xbd2e485e	-0.042549483
98	0x3ea25dca	0.3171218
99	0xbeaa0afc	-0.33211505
100	0xbdbdca04	-0.09267047
101	0xbda33397	-0.07968824
102	0x3ea8d7d4	0.32977164
103	0xbdd27a96	-0.10277288
104	0x3dcfe8df	0.101518385
105	0xbd44a3d0	-0.048007786
106	0x3e97aaa5	0.2962238
107	0xbf10a61a	-0.5650345
108	0x3e8b4efb	0.27208695
109	0xbdf8f417	-0.121559314
110	0xbe5288ae	-0.20559952
111	0xbd54bddf	-0.051938888
112	0xbe1188ca	-0.14212337
113	0x3e153038	0.14569175
114	0x3e8826a1	0.26591972
115	0xbe10bf12	-0.14135388
116	0xbd3bbdee	-0.045835428
117	0xbdb0a146	-0.086245105
118	0x3ee4a0bb	0.44653878
119	0xbda4da1b	-0.08049413
120	0x3e15df55	0.14635976
121	0xbd06e1ce	-0.032930188
122	0x3e46c281	0.19410135
123	0x3edad7ad	0.42742673
124	0xbc878527	-0.016542984
125	0xbea5bed6	-0.3237216
126	0xbe14ad8d	-0.1451933
127	0x3e161e7e	0.1466007

value_stream.2.bias f4 [4]
0	0x3e889542	0.26676375
1	0x3d27954b	0.04091386
2	0x3ded6cad	0.11592994
3	0x3e856536	0.2605378

advantage_stream.0.weight f4 [32, 64]
0	0x3ec6be2d	0.38816968
1	0xbdf10ae9	-0.11769659
2	0xbd4eb33d	-0.050463904
3	0x3d2c68c4	0.0420921
4	0xbe41b098	-0.18915021
5	0x3eb54419	0.35403517
6	0x3e49cd73	0.19707279
7	0xbc4db9fc	-0.012556549
8	0x3d9899fc	0.07451245
9	0x3ddf803a	0.10913129
10	0xbe5d3206	-0.21601114
11	0xbb8ba870	-0.0042620227
12	0xbe285eca	-0.16442409
13	0xbbaf81cd	-0.0053560496
14	0xbd3623a0	-0.04446757
15	0xbee5e915	-0.4490439
16	0x3c797868	0.015226461
17	0x3e0b0e5d	0.13579698
18	0x3eb98f22	0.36242014
19	0x3dcc16a2	0.09965254
20	0x3e042aab	0.12906902
21	0xbe3cc3b8	-0.18434036
22	0x3e1fc710	0.1560328
23	0x3e346117	0.17615162
24	0xbd2633a5	-0.040576596
25	0xbe47e997	-0.19522701
26	0xbe2b4195	-0.16724236
27	0xbeaf5860	-0.34247112
28	0x3b58f442	0.0033104573
29	0x3e466a7d	0.1937656
30	0x3d0b9c5d	0.034084667
31	0xbe8c8828	-0.2744763
32	0xbd00c115	-0.031434137
33	0x3dadf3b4	0.08493748
34	0x3b9cd855	0.004786531
35	0x3aab9763	0.0013091381
36	0xbe145ab2	-0.14487723
37	0xbc133837	-0.008985571
38	0x3dfa7d3f	0.1223092
39	0xbcb9d91e	-0.022686537
40	0x3b956741	0.004559428
41	0xbcd468df	-0.025928913
42	0x3e49ae2f	0.19695352
43	0x3d4e84d7	0.050419655
44	0xbe673d5e	-0.22582003
45	0x3ceb1803	0.028697973
46	0xbd004f6a	-0.031325735
47	0x3e929784	0.28631222
48	0x3e49bed5	0.19701703
49	0x3dd9abe9	0.106284924
50	0xbe19529f	-0.14972924
51	0xbe5a5f49	-0.21325411
52	0x3e567b46	0.20945463
53	0xbebf1d3a	-0.37326986
54	0x3cd6c726	0.026218008
55	0x3cb83d4f	0.022490172
56	0xbb85f6b2	-0.0040882463
57	0xbe0ea01b	-0.13928263
58	0xbdc57535	-0.09641496
59	0xbd97fcfc	-0.074213
60	0xbe25dd0c	-0.16197604
61	0xbcea1b79	-0.028577553
62	0x3e917331	0.28408197
63	0x3db9a5ee	0.09064852
64	0x3d093529	0.033497963
65	0x3e1418dc	0.14462608
66	0x3dcb55b0	0.09928453
67	0xbdb8f555	-0.09031168
68	0x3ca45a94	0.020062722
69	0xbe4113ce	-0.18855211
70	0xbbdce58d	-0.006741232
71	0x3e110ae9	0.14164318
72	0xbdbb014d	-0.091311075
73	0x3d626b84	0.055278316
74	0x3df5b79c	0.11997911
75	0xbe079be5	-0.13243063
76	0xbe2679fe	-0.16257474
77	0x3e333dfc	0.17504114
78	0x3c415962	0.011801096
79	0x3d28f9b5	0.041253764
80	0x3e4e05b5	0.20119365
81	0x3e812d2e	0.25229782
82	0xbe3905b3	-0.1806858
83	0x3ce162bb	0.027512899
84	0xbdcb34fc	-0.09922215
85	0x3cb20c5a	0.021734405
86	0xbe20f0d9	-0.15716876
87	0x3e13208c	0.14367884
88	0x3d75b1ab	0.05998389
89	0x3db44384	0.0880194
90	0x3cd0f3b8	0.02550684
91	0x3dda1a51	0.10649551
92	0xbe151a14	-0.1456073
93	0x3db9722b	0.09054979
94	0x3d94d62f	0.07267415
95	0x3cc5afa8	0.024131611
96	0x3df90331	0.12158812
97	0xbbb9a21d	-0.0056650774
98	0x3d5cd4c1	0.053913835
99	0xbd087432	-0.033313937
100	0xbe8aa271	-0.27077058
101	0xbda50df7	-0.08059304
102	0x3dd1c699	0.102429576
103	0x3e2e7717	0.17037617
104	0x3cc2d45f	0.023782907
105	0xbd3081a7	-0.043092396
106	0xbd0d4825	-0.03449263
107	0xbe81a48a	-0.25320846
108	0xbd042d77	-0.03226992
109	0xbdf43326	-0.11923818
110	0x3df33d31	0.11876906
111	0x3e522977	0.2052363
112	0x3e092f0b	0.13396852
113	0xbd5dfd06	-0.05419638
114	0x3e4f67df	0.20254467
115	0x3e1627de	0.14663646
116	0x3e502ae1	0.20328857
117	0x3de0a402	0.10968782
118	0x3b0eed76	0.0021809018
119	0xbe7a3564	-0.2443443
120	0xbe13cbeb	-0.14433257
121	0x3d01f892	0.031731196
122	0x3dc0eeed	0.094205715
123	0xbd3896de	-0.045065753
124	0xbe3c432e	-0.18385002
125	0xbc2a29cc	-0.010385942
126	0x3bd0026c	0.006347945
127	0xbef40b5f	-0.47664925
128	0x3d377bbe	0.044795744
129	0x3c9da0ff	0.019241808
130	0x3dda44bd	0.10657642
131	0x3c98e43d	0.01866352
132	0x3d4eefd9	0.050521705
133	0xbe01d37a	-0.12678328
134	0xbcf5c241	-0.029999854
135	0x3d1d5930	0.038415134
136	0x3d7bf706	0.061514877
137	0xbe16cadb	-0.1472582
138	0xbdc5ed6f	-0.096644275
139	0xbdcc8126	-0.099855706
140	0xbe105bcc	-0.14097518
141	0x3df4a59b	0.11945649
142	0x3c601f77	0.013679377
143	0x3dc0b51b	0.09409543
144	0x3cb133e4	0.021631189
145	0x3ea11fef	0.31469676
146	0xbe10e5e7	-0.14150201
147	0x3e2fe68c	0.1717779
148	0x3c13013f	0.008972465
149	0x3dde7c81	0.10863591
150	0xbd99b5aa	-0.07505353
151	0xbe54cebf	-0.20781992
152	0x3e3ebbc8	0.1862632
153	0x3e1f5e85	0.155634
154	0xbd7362a5	-0.059420247
155	0x3e1f7b29	0.15574326
156	0x3dd5173f	0.104048245
157	0xbe1722ba	-0.14759341
158	0x3e4b768e	0.19869444
159	0xbdd881c1	-0.105716236
160	0x3e3af71b	0.18258326
161	0x3d5c947f	0.053852554
162	0x3db24243	0.08704045
163	0xbc2e3dad	-0.010634822
164	0xbd97c111	-0.07409871
165	0xbe194446	-0.1496745
166	0x3e8c4a73	0.2740055
167	0x3e85f7a3	0.26165494
168	0xbec18d46	-0.37803096
169	0x3e06edfe	0.13176724
170	0xbc4dcd7c	-0.012561198
171	0xbad4b87e	-0.0016229299
172	0x3e3ad8d1	0.18246771
173	0x3c38efb3	0.0112876175
174	0x3d147502	0.0362444
175	0x3ec1d6ca	0.37859184
176	0x3d803c44	0.06261495
177	0xbdcd7827	-0.10032683
178	0x3dad23a4	0.084540635
179	0x3d68214d	0.056672383
180	0x3d27ad5c	0.040936813
181	0xbe19ea83	-0.15030865
182	0xbd3a9535	-0.04555245
183	0xbe1b01d9	-0.15137424
184	0xbeb2cb4d	-0.3492073
185	0x3eaff332	0.3436523
186	0x3e3c2376	0.18372902
187	0xbdf83e3f	-0.121212475
188	0xbe389bd3	-0.18028192
189	0xbc9caaa9	-0.019124346
190	0x3d9a0cae	0.0752195
191	0xbd9b72e7	-0.07590275
192	0x3e4b870c	0.19875735
193	0xbe03713e	-0.12836167
194	0x3e1304d0	0.14357305
195	0xbdb7910a	-0.08963211
196	0x3c62708d	0.0138207795
197	0xbd654fbd	-0.055984247
198	0xbdd817dd	-0.105514266
199	0xbdb0b6d9	-0.086286254
200	0xbd86cc62	-0.06581952
201	0xbb9a433d	-0.0047077225
202	0xbd810791	-0.06300271
203	0xbcf3c6aa	-0.029757816
204	0xbd82013d	-0.063478924
205	0xbdd7b9e3	-0.10533502
206	0x3d4dbc46	0.05022838
207	0xbd684cf5	-0.056714017
208	0xbc4a8b43	-0.012362304
209	0x3d89e722	0.06733538
210	0x3bb391f1	0.005480044
211	0x391ab4a7	0.00014753883
212	0x3de54149	0.11194093
213	0x3bd2520e	0.006418473
214	0x3ec1ab2d	0.3782591
215	0x3d93401a	0.07189961
216	0x3e0235d6	0.1271585
217	0x3dad2fc8	0.08456379
218	0x3d840203	0.06445696
219	0x3d595c11	0.053066317
220	0x3d9dc450	0.07703459
221	0x3d81aa5e	0.06331323
222	0xbdbb00a0	-0.091309786
223	0x3d29b7f0	0.041435182
224	0xbde983cb	-0.11402091
225	0xbe03814a	-0.12842289
226	0xbc0e7541	-0.008694948
227	0x3cb3e08c	0.021957658
228	0x3b972b4a	0.0046133148
229	0xbd7c9a4a	-0.06167058
230	0xbd23b9fc	-0.03997229
231	0xbdba5953	-0.090990685
232	0xbd995235	-0.07486383
233	0xbcae5201	-0.021279337
234	0xbe016d7e	-0.12639424
235	0x3e5b0715	0.2138942
236	0xbe50bf1a	-0.203854
237	0xbda6cf41	-0.08144999
238	0xbbb7181a	-0.00558759
239	0xbe1d3d22	-0.15355352
240	0x3d818b8c	0.063254446
241	0xbdcb3f0f	-0.09924137
242	0xbeab002a	-0.33398563
243	0xbe80b5ae	-0.2513861
244	0xbe3ac162	-0.18237832
245	0x3d19beae	0.037535362
246	0x3d642649	0.055700574
247	0xbe02618f	-0.12732528
248	0x3d7c395d	0.061578143
249	0x3e73091e	0.23733947
250	0x3e19238d	0.14954968
251	0x3d818d9e	0.063258395
252	0x3dbcee89	0.092251845
253	0xbc4f1104	-0.012638334
254	0x3db4625f	0.08807825
255	0xbd0b4574	-0.034001783

advantage_stream.0.bias f4 [32]
0	0xbd9d6157	-0.07684582
1	0x3dc7306b	0.09726032
2	0x3d37458b	0.044744056
3	0xbcc8f5aa	-0.024531204
4	0x3d1096bb	0.035299998
5	0xbe252510	-0.1612742
6	0xbcbe1e04	-0.023207672
7	0xbd5cd85b	-0.05391727
8	0x3afcbdc9	0.0019282635
9	0xbe106405	-0.14100654
10	0xbdc176fc	-0.094465226
11	0xbd9dd1de	-0.077060446
12	0xbc5be05e	-0.0134201925
13	0xbe0449cc	-0.12918776
14	0xbde17cc5	-0.11010126
15	0x3dbaa7bd	0.09114025
16	0x3dacc2c2	0.084355846
17	0x3cb40f70	0.021980017
18	0xbd96c8d4	-0.07362524
19	0xbe006295	-0.12537606
20	0x3df91ffc	0.12164304
21	0x3d824002	0.06359865
22	0x3c9c9327	0.019113136
23	0xbd30db36	-0.043177806
24	0xbdcc8d77	-0.0998792
25	0x3d06e46d	0.032932688
26	0xbbd843fa	-0.0065999003
27	0xbac50479	-0.001503124
28	0x3dbc4a38	0.091938436
29	0xbd64f9e6	-0.055902384
30	0x3e1c4e36	0.1526421
31	0x3dbd6d8b	0.09249409

advantage_stream.2.weight f4 [4, 32]
0	0xbed372e9	-0.41298607
1	0xbd396991	-0.04526669
2	0xbe14bb45	-0.14524563
3	0xbd0e26ae	-0.034704857
4	0xbe05a5fd	-0.13051601
5	0x3dcf41a3	0.10119941
6	0x3d853d22	0.06505801
7	0x3e7bf215	0.24604066
8	0x3e449532	0.19197538
9	0x3c9c6cab	0.019094786
10	0xbe5eeb9a	-0.21769562
11	0x3e3c2909	0.18375029
12	0xbdb754cf	-0.08951723
13	0x3e0b76e0	0.13619566
14	0x3e9eee4b	0.31041178
15	0x3eb60759	0.3555248
16	0x3e0a1476	0.13484368
17	0xbd91d5fc	-0.071208924
18	0xbd2de0bb	-0.042450648
19	0xbd98a2c5	-0.07452921
20	0xbe39e55d	-0.18153901
21	0x3e8da16a	0.27662212
22	0xbe5eee2e	-0.21770546
23	0x3cd1a629	0.025591927
24	0x3ca51f29	0.02015646
25	0x3d9cf9f2	0.07664861
26	0xbe493ea3	-0.196528
27	0x3da242bd	0.079228856
28	0x3dd24d04	0.10268596
29	0xbcd4b6e4	-0.025966115
30	0x3e2158bd	0.15756507
31	0x3e8d7c08	0.2763369
32	0x3ecd6748	0.4011786
33	0xbe47296b	-0.19449393
34	0xbd17f778	-0.03710124
35	0xbdc55889	-0.09636027
36	0xbe5d4515	-0.21608384
37	0xbdf48340	-0.119390965
38	0xbe127f7c	-0.14306444
39	0x3e9f3240	0.31093025
40	0xbe8684b3	-0.26273116
41	0xbb314378	-0.002704827
42	0xbeb553f7	-0.35415623
43	0xbe66845d	-0.2251143
44	0x3ef3610f	0.47534987
45	0x3d2bd3f2	0.041950174
46	0xbe75b8a6	-0.23996219
47	0x3dcd47cb	0.10023459
48	0x3e6869ed	0.22696657
49	0x3cb9e4ad	0.022692049
50	0x3cd1c378	0.025605902
51	0x3e138e9a	0.14409867
52	0x3d9d1aec	0.076711506
53	0xbe70cbdb	-0.23515265
54	0x3d168a54	0.036753014
55	0x3ec9dd1a	0.394265
56	0xbebe3862	-0.37152392
57	0x3ea99e86	0.33128756
58	0xbe205a36	-0.15659413
59	0x3e71b4ef	0.23604177
60	0x3d9b4467	0.07581406
61	0x3f032063	0.51221293
62	0x3df24cb6	0.11831038
63	0x3e9b5502	0.30338293
64	0xbed02a8d	-0.40657464
65	0xbe3bfa74	-0.18357259
66	0xbe7d0fbf	-0.24713038
67	0x3e923b5c	0.28560913
68	0xbe95ecda	-0.29282266
69	0x3e1aa19f	0.15100716
70	0xbdcaac2b	-0.0989612
71	0x3dd62529	0.104563065
72	0xbe2a5086	-0.1663228
73	0x3d1b4289	0.03790525
74	0xbec54728	-0.3853085
75	0xbe913c68	-0.283664
76	0xbe66b9ec	-0.22531861
77	0x3dda5543	0.10660794
78	0xbe9c9970	-0.30585814
79	0x3d2446a0	0.040106416
80	0x3e13c882	0.14431956
81	0x3e0aec32	0.13566664
82	0xbd4b3f82	-0.049621113
83	0xbdaa314c	-0.08310184
84	0x3dcde80b	0.10054024
85	0x3df0d3b3	0.117591284
86	0xbe8547ec	-0.26031435
87	0x3db6a5af	0.089183204
88	0xbea78bd4	-0.32723868
89	0x3db141fe	0.08655165
90	0xbd377645	-0.044790525
91	0xbe9c19a0	-0.304883
92	0xbe0ace28	-0.13555205
93	0xbe5d8510	-0.2163279
94	0x3e8f0993	0.27936992
95	0xbd00c3a9	-0.031436596
96	0xbe8a41e4	-0.27003396
97	0xbe591346	-0.21198758
98	0xbda593d5	-0.08084837
99	0x3de48473	0.11158075
100	0xbe36ac79	-0.1783923
101	0x3dd89438	0.105751455
102	0xbef17f0a	-0.47167236
103	0x3c88e776	0.016711932
104	0x3e72a0b2	0.23694113
105	0x3ab2da94	0.0013645464
106	0x3e909fac	0.2824682
107	0x3da3072e	0.07960354
108	0x3d81b7fa	0.06333919
109	0xbbfb0a56	-0.0076611442
110	0xbe241a09	-0.16025557
111	0x3e326b70	0.17423797
112	0xbd227c5c	-0.03966938
113	0xbec2ad24	-0.3802272
114	0xbe5fc60b	-0.21852891
115	0x3dc95c7f	0.09832095
116	0x3c823f3b	0.015899291
117	0xbe2b6158	-0.16736352
118	0xbd4410ee	-0.047867708
119	0x3d3c08cc	0.045906827
120	0x3cba567e	0.02274632
121	0x3d9aa8ae	0.07551704
122	0xbd875789	-0.06608493
123	0xbd2dc7f9	-0.042427037
124	0xbe145b17	-0.14487873
125	0xbeb47572	-0.35245854
126	0x3cbd2aaa	0.023091633
127	0xbb9b7fda	-0.0047454657

advantage_stream.2.bias f4 [4]
0	0x3e018eef	0.12652181
1	0x3e15724d	0.14594384
2	0x3d18ab72	0.037272878
3	0x3d9c1fd2	0.07623257
