mini_rainbow_params.pth (torch, 48527 bytes, 12 tensors)

feauture_layer.0.weight f4 [64, 37]
000000 59 29 6f 3e 17 2f 88 be 1d 32 d1 be f3 f0 ed be
       0.23355617 -0.26598427 -0.40858546 -0.46472892
000010 6a fe c8 bf c7 0e 56 bd 5a f9 a6 3d f7 90 c2 3d
       -1.5702641 -0.052260187 0.08153029 0.09500306
000020 c0 36 2b 3e 49 ab 10 3e 68 27 c5 bc 6f a3 9c bd
       0.16720104 0.1412784 -0.024066642 -0.0764836
000030 93 ec da bd c0 17 05 be 38 c2 c5 bd fe d7 d1 bc
       -0.10689654 -0.12997341 -0.09656185 -0.025615688
000040 56 87 f1 3d 33 82 d4 3d 18 bf 9e 3d be 5a 14 bd
       0.117933914 0.10376396 0.07751292 -0.03621935
000050 5a 36 31 3d 5b a7 f1 3d e2 aa c0 3d b7 95 d5 3d
       0.043264724 0.11799499 0.09407593 0.104289465
000060 b8 64 33 bb f5 64 c3 3c 34 fb 0f bc cf e7 70 3d
       -0.0027373265 0.023851851 -0.008787919 0.05881482
000070 0d 39 75 3d ae 6b b8 3d 65 e9 37 3c c1 0b 59 3d
       0.05986886 0.09004913 0.011225079 0.052989725
000080 52 ae c3 3b 5f 6e 89 bd c7 97 22 be 25 08 41 3c
       0.0059717083 -0.06710505 -0.15878211 0.011781727
000090 d0 58 05 bb 32 33 02 3e c6 35 b0 3d a8 9f ca 3d
       -0.0020347126 0.12714842 0.086040065 0.09893733
0000a0 a5 be 29 bd 73 e6 89 bd ab 0c 6e bd 7d c4 17 be
       -0.04144158 -0.06733408 -0.05811755 -0.14821048
0000b0 40 f6 e7 bd 61 aa 77 3d f4 0b 9b 3e 6c 5a 83 bd
       -0.11326265 0.06046522 0.30282557 -0.06413731
0000c0 83 64 e6 3c dc b2 52 bd eb 53 1c 3e 42 3b ae 3d
       0.0281241 -0.051440105 0.15266387 0.08507396
0000d0 ba 2d b2 3d 29 85 f9 3d e1 ee 65 bd 5f 32 97 be
       0.08700128 0.121836014 -0.056136016 -0.29530618
0000e0 4b 86 09 bf 44 54 83 bd 11 04 fc bd 51 a0 c1 bd
       -0.5372054 -0.06412557 -0.12305463 -0.09454406
0000f0 23 33 71 bc 79 6f ba 3d 95 67 e6 bd f5 a1 90 bd
       -0.014721665 0.09103293 -0.112502255 -0.07062141
000100 33 b2 ff 3c 1d f8 30 3e ff 11 20 3f 48 3e 8d 3d
       0.031212902 0.17282148 0.6252746 0.06896645
000110 0f 1f ec 3d 35 83 86 3c 0d f8 af bd 30 6c c4 3d
       0.115293615 0.016419986 -0.08592234 0.09590948
000120 5f d3 1a 3d 0b 1d 2f 3d a1 dd b6 3d f7 92 1e 3e
       0.037799235 0.042752307 0.08928991 0.1548575
000130 b0 ae b6 3d ad 8d 40 3d a2 90 d1 bb cc c3 02 bf
       0.08920038 0.047010113 -0.0063954154 -0.5108001
000140 30 96 45 3e 0c 6c b8 3e 6c 9b b8 3d 96 71 80 be
       0.19295573 0.36019933 0.09014019 -0.2508666
000150 f1 18 c3 3b 6f 1c fa 3c 47 7c 92 bd 72 25 4a 3d
       0.005953901 0.030531136 -0.0715261 0.049352117
000160 1b 34 8c 3d 16 85 b1 bd bd 47 d7 3d 69 1d 1f 3e
       0.06845876 -0.08667962 0.1051173 0.15538563
000170 a3 ec 07 3e 90 ca a2 bb 0c 28 12 be f1 6a 58 3d
       0.13273863 -0.004967995 -0.14273089 0.052836362
000180 da 71 0b bb ad 51 b8 3c de 59 aa bb 73 38 df be
       -0.0021277578 0.022499884 -0.0051987013 -0.43597755
000190 43 42 97 3e 85 ae b3 3e 45 4e 65 3c 4b 46 14 bf
       0.2954274 0.35094085 0.013995712 -0.5791976
0001a0 9a 71 3d be d8 af e9 3c f0 d9 02 bd ae 08 1e be
       -0.18500367 0.028526232 -0.031946123 -0.15432999
0001b0 4f a2 ba bd 9a 18 8d 3b 29 be c3 3b be 63 14 3e
       -0.09112989 0.0043059113 0.0059735966 0.14491174
0001c0 0e 75 20 bd 9c e6 29 3d fb cc 0a 3e fa eb db bd
       -0.039174132 0.041479692 0.13554756 -0.10738368
0001d0 3e 3a bb bc cb 38 2c be f7 99 2c be 98 98 b2 3e
       -0.02285492 -0.1681854 -0.16855608 0.34882045
0001e0 55 6b 60 3f b6 9c 35 3c ea ee a9 bd 9e 7b 23 3d
       0.87663776 0.011084726 -0.08297522 0.039912812
0001f0 05 80 84 bd 09 ec e7 bd 03 e4 e1 bd aa 0d c3 bc
       -0.0646973 -0.11324317 -0.11029818 -0.023810226
000200 41 6e 1f bc 15 93 1a be 55 71 20 be 5a 7c 2b bb
       -0.009730876 -0.1509517 -0.15668233 -0.0026166649
000210 3f af 25 bc 98 8d d0 bc 01 ec 85 3c 3a 77 90 3d
       -0.010112583 -0.025458142 0.016347887 0.07053991
000220 be ab c1 bc ad e1 65 bd 02 71 ea bc ee 31 1e 3e
       -0.023641463 -0.056123424 -0.02861834 0.15448734
000230 6b b6 ca 3e ad ed cb 3d ab ea e4 3d 69 65 df 3c
       0.395923 0.099574424 0.11177572 0.027270036
000240 65 08 37 be d6 4d 04 be de d5 8b 3b ea c4 c7 3b
       -0.17874296 -0.12920317 0.0042674383 0.006096472
000250 b7 a7 18 be c4 36 10 bb 34 f0 29 be 28 fe f9 bd
       -0.14907728 -0.00220053 -0.16595536 -0.122066796
000260 a6 cb fe 3d c8 76 99 3e da 93 a0 be a7 5a ca be
       0.124411866 0.29973435 -0.31362802 -0.39522287
000270 79 34 2c be 44 49 94 bf c3 2a c5 bd d7 97 9d bd
       -0.16816892 -1.1584859 -0.09627297 -0.07694977
000280 f6 52 ef 3d 10 7a 0b be bf aa 69 be 4b 08 02 be
       0.116857454 -0.13620782 -0.2281904 -0.12698476
000290 8f f3 89 bc 23 d3 8f bd 21 49 bc 3d 13 98 2c 3e
       -0.01683977 -0.07022693 0.09193636 0.16854887
0002a0 a6 91 cb bd 10 fb 40 bd 2d da 48 3d 91 81 a0 3d
       -0.099398896 -0.04711443 0.049036194 0.07837213
0002b0 74 60 0d 3e 1a 06 6c 3b 57 72 a5 bd 7b 67 41 3e
       0.13806325 0.003601438 -0.08078449 0.18887131
0002c0 d3 22 d4 3d 3e f5 9d 3e 3d 48 32 3a 36 93 61 3d
       0.10358205 0.30851167 0.00068009255 0.055072032
0002d0 70 79 69 3d 62 3a 1f 3d 38 ba 65 3e 5b 9a 6b bc
       0.057000577 0.038874038 0.22434318 -0.014380063
0002e0 2d e0 77 3c 25 a1 19 3d 32 8f 5a be 46 2d 2b 3b
       0.015129131 0.037507195 -0.21343687 0.0026119514
0002f0 e9 9e 72 be 91 07 91 3d 85 62 b9 3d 61 2e 1c be
       -0.23693432 0.07081521 0.09051994 -0.15252067
000300 8e da df bd c7 57 a8 bd d4 c5 9f bf e6 9f 61 bd
       -0.10930358 -0.08219867 -1.2482247 -0.05508413
000310 79 d9 81 be 45 6b b3 bd 81 3b fb 3c 65 81 83 bd
       -0.2536123 -0.087606944 0.030668022 -0.064211644
000320 d6 95 c9 bd 4f 0f 93 bd 57 b1 96 3d 53 21 c7 bd
       -0.09843032 -0.07180654 0.07358044 -0.09723153
000330 dc 24 8a bd f1 12 2a 3d 50 7e d9 bd 1b 9e 07 3d
       -0.067453116 0.04152197 -0.10619795 0.033109765
000340 71 cf 62 3e 37 3d 09 be 7a df 58 bd f4 7a e8 bc
       0.22149445 -0.13402258 -0.0529475 -0.028378941
000350 10 a8 34 bd 22 8e 3e bd 17 de 55 bd 52 eb 62 bd
       -0.04410559 -0.046522267 -0.052213755 -0.0554002
000360 bb d0 00 be 4b 7b c4 3c 61 bb 17 bd dc e3 fc bd
       -0.12579624 0.023984572 -0.037043933 -0.12348148
000370 99 ea 77 3d 1f f1 83 3d 03 00 89 bb 71 44 60 bd
       0.060526464 0.064424746 -0.0041809096 -0.05475277
000380 bc 51 fe 3c 71 b9 ba bc 6e 2e 2c 3e 93 d1 13 bd
       0.031044833 -0.022793503 0.16814587 -0.036088537
000390 53 e9 00 bd de 06 10 be 79 16 9b 3d d1 2e 73 3d
       -0.031472515 -0.1406512 0.07572646 0.05937082
0003a0 cd 94 55 3e 07 1e 29 3d 72 f7 a8 bb b3 07 23 be
       0.20857544 0.041288402 -0.005156451 -0.15920906
0003b0 c2 cd d1 bc a8 0b b9 bd c3 0c a0 be 69 dc a6 bc
       -0.025610808 -0.090354264 -0.31259736 -0.020368772
0003c0 12 e1 95 3e 9c 3c 8e 3e e5 db 1c be c4 71 77 3d
       0.29273278 0.27780616 -0.15318258 0.06041123
0003d0 af fc b4 3b 35 27 93 3d 2f 1e 31 bc 1f 3f 6a 3c
       0.0055232863 0.071852125 -0.010810419 0.014297276
0003e0 ca bf 10 bf 1d b9 ba bd a6 86 76 3d 63 f7 f8 3b
       -0.56542647 -0.09117339 0.060187005 0.00759785
0003f0 5e 4d 6e 3e b5 bc 47 be c7 a6 38 be b2 15 59 bd
       0.232717 -0.1950558 -0.1803237 -0.052999206

feauture_layer.0.bias f4 [64]
000000 d9 66 42 3e 06 67 d9 bc 12 d6 0c be 05 70 8b bd
       0.18984546 -0.026538383 -0.13753536 -0.068084754
000010 fe 89 2a 3e 2a 88 19 be e7 e3 c4 bd 86 a6 89 3c
       0.16654202 -0.14993349 -0.096137814 0.016803037
000020 5b 06 72 3c 38 af 2a be 81 83 98 3d 35 40 b6 3d
       0.014772023 -0.16668403 0.074469574 0.08898965
000030 a3 a5 fd 3d 57 88 d6 3d ed 07 a2 bd 5b 22 5a bd
       0.12385108 0.104752235 -0.07911668 -0.05325542
000040 32 3c 86 3d 66 8a 88 bc f0 b5 86 bd 13 14 14 be
       0.0655445 -0.016667556 -0.065776706 -0.14460783
000050 83 ce 0d be 9a 0d 05 bd 54 b8 11 bd bc f2 46 bd
       -0.13848309 -0.032483675 -0.03557618 -0.048571333
000060 e6 b6 43 be 04 42 85 3d 33 f0 97 3c 4c cd 1b be
       -0.19112739 0.06506732 0.018547153 -0.15215033
000070 db e3 33 3e d0 ff b8 3d 2d 4c af bd 15 d1 27 be
       0.17567389 0.09033167 -0.08559451 -0.16388352
000080 7a 9a cb 3d fc 94 32 3d 6a 42 f9 bd 07 8c 8e 3d
       0.099415734 0.043599114 -0.121708706 0.06960302
000090 28 32 85 bd 85 ec d1 bc ec e1 6e bd fb 8c a4 bd
       -0.06503707 -0.025625477 -0.058320925 -0.080347024
0000a0 2a 70 e0 bd d0 42 4f bc 32 7b 12 be a6 e4 d1 3d
       -0.109588936 -0.012650207 -0.14304808 0.10248689
0000b0 44 09 9c bd 39 00 5e bd 18 08 4f bd 16 6e 1a be
       -0.07618955 -0.05419943 -0.05054483 -0.15081057
0000c0 4a de 39 bd 06 90 32 3d 99 8c 2e be 27 ee 3d 3d
       -0.045378007 0.043594383 -0.17045821 0.046369698
0000d0 e9 85 54 bd 83 31 d6 bd 34 bb 58 be 65 5a 1b 3d
       -0.05188552 -0.10458662 -0.21165162 0.037928004
0000e0 bd 3d 84 3d 7d 61 e8 bc 1c f4 d6 bd 89 68 8c bd
       0.06457088 -0.028366799 -0.10495779 -0.06855876
0000f0 70 c5 d9 bb a3 62 27 3d 22 da d1 3c d0 0c cf 3d
       -0.006645851 0.04086555 0.02561671 0.10109866

feauture_layer.2.weight f4 [64, 64]
000000 4c eb 80 3d 4c 2d 0d 3e 23 f3 83 be a5 3a 1b 3d
       0.06294879 0.1378681 -0.25771436 0.037897725
000010 cb 50 19 3e 64 d9 73 bc 7a e1 01 be 2a 44 d5 bd
       0.14972226 -0.014883373 -0.12683669 -0.10413392
000020 22 2f aa bd e4 5b bf 3d 41 fb 56 be 0e 4e 57 be
       -0.08309771 0.093436986 -0.20994283 -0.21025869
000030 34 40 a9 bc ed f1 b0 3d ae 8e ad bd 32 8b 25 3e
       -0.020660497 0.08639894 -0.084744796 0.1616638
000040 b2 7e cf 3c 00 90 b3 bd 16 17 b1 3d 4b 10 49 3c
       0.025328968 -0.087677 0.086469814 0.012271951
000050 c5 de d1 bd 26 f2 d4 3d 29 3c 3f 3e 9c 0b 88 bc
       -0.10247568 0.10397749 0.18675293 -0.016607098
000060 b2 77 43 3c 78 b7 e2 3b 86 8a b1 3e d4 ef 5c ba
       0.011930393 0.006918844 0.34675997 -0.0008428071
000070 46 aa c6 bc 35 fb 1a 3e e2 c1 77 3e 86 c5 96 bd
       -0.024251115 0.1513489 0.24195054 -0.07361893
000080 ed 84 fd bd 9d f2 83 bd 72 18 85 3d 3e 0a 80 3d
       -0.12378869 -0.06442759 0.06498803 0.062519535
000090 f8 6b 05 be 68 45 73 3d d7 d9 95 3e d6 80 8a bd
       -0.13029468 0.059392363 0.2926776 -0.06762855
0000a0 e1 38 ba bc b1 d6 ec bd 0a 42 4b 3e 89 17 c8 3c
       -0.0227322 -0.11564387 0.1984941 0.024425285
0000b0 45 cb 8f 3d c9 a7 46 bd ff 34 79 be c1 55 17 bc
       0.070211925 -0.048499856 -0.24336623 -0.009236754
0000c0 06 7d 3c 3c 01 8d c9 bd c4 a1 2d be fc a1 b2 3a
       0.011504417 -0.098413475 -0.1695624 0.0013628597
0000d0 af 22 8c bc 8e e1 b7 3b ed 30 14 3e 84 35 b3 3d
       -0.017106382 0.005611605 0.14471789 0.08750442
0000e0 0a 76 93 bd cd 41 ef 3d 6f 59 fc bd 35 14 8d 3d
       -0.072002485 0.116824724 -0.123217456 0.0688862
0000f0 e7 35 4f bc 43 19 e8 3d e9 48 3e be 4d e8 d0 bd
       -0.012647129 0.11332943 -0.185825 -0.10200558
000100 ac 9a 44 bb a9 ba 8b 3d f8 4a 05 3e cf 55 a0 3d
       -0.0029999418 0.06822712 0.1301688 0.07828867
000110 3e 36 21 3e 5a ba c9 bd f9 6e 6c be 8e 44 fd 3d
       0.15743348 -0.09849997 -0.23089208 0.123665914
000120 bc 35 91 be 1e 38 d4 bd e8 06 0a 3d 97 d2 3e 3d
       -0.2836131 -0.10362266 0.033697993 0.046587553
000130 0d db 55 3e f5 d3 08 3e 18 d7 ae bd 25 7e 2b 3e
       0.20884342 0.13362105 -0.085371196 0.16747339
000140 ad 20 80 3e e6 14 b5 3b 4f 1e dd bd 73 e5 6b be
       0.2502493 0.005526173 -0.107967965 -0.23036747
000150 64 27 b5 3c 94 e5 db bd 3c a4 6e be 55 ea 10 be
       0.02211351 -0.10737148 -0.23304838 -0.1415189
000160 34 18 cd bc b2 d5 ec bd ac 55 c6 be 1f 61 2b be
       -0.025035955 -0.11564197 -0.38737237 -0.16736268
000170 4b dd 7b 3d de 29 92 bd c0 fc 1a bd e9 af f8 bd
       0.06149034 -0.07136892 -0.037838697 -0.12142927
000180 0b 68 db bc 57 91 f4 bc 5d 88 2e be 5f 60 09 be
       -0.02678301 -0.02985446 -0.17044206 -0.13415669
000190 28 3f d6 bc af 93 89 3c be 5b 20 be d2 33 00 be
       -0.026153162 0.016794054 -0.15659997 -0.12519768
0001a0 45 2e 60 be 03 a8 3d 3e c6 75 17 be 58 d1 ec bd
       -0.2189265 0.18521123 -0.14791021 -0.11563367
0001b0 00 0d 12 be bc 30 3b 3d 74 fb 3a be 9c 59 66 be
       -0.14262772 0.045700774 -0.18259984 -0.22495121
0001c0 31 b7 81 3b a8 d4 2b be c9 bd 1c 3e 7c f1 2b bd
       0.0039586057 -0.1678034 0.15306772 -0.041978344
0001d0 25 c0 18 bd 02 d6 24 3e 48 e6 9f 3e c6 0e 29 3d
       -0.03729262 0.16097263 0.31230378 0.041273855
0001e0 ac c6 53 be d5 2c a2 3d a3 6c 15 3d 0b e5 a3 bd
       -0.20681256 0.07918707 0.036480557 -0.08002671
0001f0 d5 32 9c bd 72 48 b4 3d a6 78 46 bd 48 92 07 bd
       -0.07626883 0.0880288 -0.048454903 -0.03309849
000200 86 8c b2 be 7c fe 9a bd b0 08 b7 3b ed 55 e9 bd
       -0.34872836 -0.0756807 0.0055857524 -0.11393342
000210 3c 52 d9 bc db 67 45 3e 68 32 90 bd 4a 48 0e 3c
       -0.02652847 0.19277899 -0.07040864 0.008684227
000220 2e 60 e5 3d 5a bb 98 39 54 ec a1 3d d8 33 1c 3d
       0.111999854 0.00029131287 0.07906404 0.03813538
000230 c5 f8 97 3d b2 e8 68 b9 1b 75 11 bd 8d a3 0f 3e
       0.07420496 -0.0002221193 -0.03551207 0.14027233
000240 71 5f c5 be d6 89 99 bd 3b ee 55 39 2f 65 8d bd
       -0.3854938 -0.07496993 0.0002040201 -0.06904065
000250 b4 6f 0f be 17 15 33 be 21 d0 f3 3c 4d dc 6f bd
       -0.14007455 -0.17488514 0.02976233 -0.058559705
000260 e5 7f 0a bd 8e d8 97 3d b7 81 b6 3e c5 ff 30 3e
       -0.033813376 0.074143514 0.3564584 0.17285068
000270 10 bc bb bd 12 33 6d 3d e2 32 e0 3d 0d 51 c0 bd
       -0.091667295 0.057910033 0.10947205 -0.09390459
000280 8a c4 17 be 9f 27 24 be 59 5a 26 be 30 3b 15 be
       -0.14821067 -0.16030739 -0.16245402 -0.1457336
000290 75 9c fa bc 5f e2 39 3e b9 0e 00 be f3 cf 68 3d
       -0.030592183 0.1815276 -0.12505616 0.05683894
0002a0 53 ed 80 3e 40 a9 b7 bd 15 5e ff 3d 39 c1 b8 bd
       0.25181064 -0.08967829 0.124691166 -0.09021229
0002b0 e4 2c 46 3d 75 d0 85 be 77 bf 7e bd 6b 3d 01 bd
       0.048382655 -0.26135603 -0.062194314 -0.031552713
0002c0 e2 49 23 3c 0c f0 11 be 09 33 7f be 54 6a a7 3c
       0.0099663455 -0.14251727 -0.24921812 0.020436443
0002d0 0e ad ab bc 80 b2 07 bc c5 e6 5b be 7e 88 63 be
       -0.020956542 -0.008282304 -0.2147475 -0.22220036
0002e0 f6 7b 56 bd 26 27 cd bd 7b 11 f3 3d 6e 85 78 3e
       -0.052364312 -0.100172326 0.118685685 0.2426965
0002f0 17 91 16 3b b4 62 b4 bd d6 11 75 3d 1b 41 f9 bd
       0.0022974664 -0.088078886 0.059831463 -0.12170621
000300 bd 86 ea 3b 64 6d 09 bd 59 64 f6 be 33 f3 27 bd
       0.0071571753 -0.03355159 -0.48123434 -0.041003417
000310 99 09 89 3d db 3f b1 3d 07 39 32 bd 0d fa c1 bd
       0.06691284 0.086547576 -0.043511417 -0.094715215
000320 05 0e 9a bd 59 98 9c bc 58 ed e1 bd 1f 80 1a 3e
       -0.07522205 -0.019115614 -0.11031598 0.15087937
000330 8e 67 e2 bd a5 17 13 3e 15 02 0b bd 67 01 9b bd
       -0.11054908 0.14364488 -0.033937532 -0.07568627
000340 84 7b 82 bc aa b2 66 bc 51 48 db bd fe 2e 06 bd
       -0.015928037 -0.014080683 -0.10707153 -0.03275966
000350 9a b4 23 3d 50 e9 17 3e ea 95 f1 bd d9 6b e3 3a
       0.039967157 0.14835095 -0.11796172 0.0017350867
000360 98 71 dc 3d 09 10 77 bc 90 83 20 3e ac 80 20 3e
       0.10763854 -0.015079507 0.15675187 0.15674084
000370 1a 4f 38 3e d5 92 9c be 50 fc 27 3e a0 d4 8d bd
       0.17998925 -0.30580774 0.16404843 -0.069253206
000380 33 23 a0 3b 85 7f 2d bd 26 bb 04 3d 77 72 ba 3d
       0.0048870086 -0.04235794 0.03240504 0.09103864
000390 5b 78 df ba 94 44 4d 3e d2 9a 47 bd 3b 28 d7 bd
       -0.0017049419 0.20045692 -0.048731633 -0.1050572
0003a0 ec 43 73 3d a3 42 0c 3e 26 8f 09 3e 81 84 bd bc
       0.059390947 0.13697295 0.13433513 -0.023134472
0003b0 d7 b0 1e be 7d 60 b7 bc 87 b3 de 3d 44 e9 e8 bc
       -0.15497147 -0.022384876 0.10874086 -0.028431542
0003c0 ca b1 57 3d 88 d1 6a bc 0c 87 65 bd 89 06 a4 3d
       0.052659787 -0.014332183 -0.056036994 0.08009059
0003d0 fd e7 b5 3d 74 28 59 3e ef 7b 9c bd 18 98 ef 3d
       0.08882139 0.21206838 -0.07640826 0.116989315
0003e0 18 ad f9 bd 78 d2 23 be 37 05 00 bd 05 af 23 3e
       -0.12191218 -0.15998256 -0.031254973 0.15984733
0003f0 a7 5f 4e bd 6c 62 75 3d da 44 9d be fb e4 25 3a
       -0.05038419 0.059908316 -0.30716592 0.0006328371

feauture_layer.2.bias f4 [64]
000000 2c 57 1a 3d c2 0b 31 bc a3 49 4d 3c be 19 90 3d
       0.03768079 -0.010806026 0.012529763 0.0703616
000010 0e b8 72 3d 70 27 2c be c8 18 05 be 42 b6 f1 3d
       0.05925756 -0.16811919 -0.12997735 0.11802341
000020 b1 c4 18 bb 94 b5 54 3d 27 81 50 bb 6f 7b 35 3d
       -0.0023310597 0.05193098 -0.0031815262 0.04430717
000030 82 f0 44 3d df 23 92 bd 3e 87 f7 bd a4 6b cb 3d
       0.04808093 -0.07135748 -0.12086342 0.0993264
000040 d0 09 24 3d 56 b7 c5 bd 91 dd 6a bd 82 98 57 3d
       0.04004842 -0.09654109 -0.05734021 0.052635677
000050 e1 d4 49 bb 70 36 04 3e 35 48 37 be b3 83 cb bd
       -0.0030797052 0.12911391 -0.17898639 -0.09937229
000060 d6 33 df bd 77 27 95 bd bd b5 bb 3d 14 b9 ce bd
       -0.10898559 -0.07282918 0.09165523 -0.100938946
000070 25 e4 dc bd ad 92 00 bc 83 aa 8e bb fe f9 f1 bd
       -0.107857026 -0.00784747 -0.0043538227 -0.1181526
000080 ee 82 a4 bd 90 b1 d1 3d 50 3e 3e 3d 2e dc be ba
       -0.08032785 0.102389455 0.046446145 -0.0014561468
000090 af ed 16 be ca 59 40 bd 26 92 09 3e c3 e0 8c bd
       -0.14739107 -0.04696063 0.13434657 -0.068788074
0000a0 b5 88 ad bd 71 cf e2 3d e7 12 c8 3d e0 c6 cb bd
       -0.084733404 0.110747226 0.0976923 -0.09950042
0000b0 42 8c f7 3c 88 3f ee bd dc b0 e6 bd e1 df 05 bd
       0.030218247 -0.116332114 -0.11264202 -0.03268421
0000c0 ba 5f ad 3d 9b a5 1e be df c4 f8 bd 0e 93 b2 bb
       0.08465524 -0.15492861 -0.12146925 -0.005449659
0000d0 85 07 09 be 17 cd f2 bd be ad 3d 3d 4d bb 05 be
       -0.13381775 -0.11855524 0.04630827 -0.13059731
0000e0 e6 24 71 bd bc b1 1d be 54 3b e7 3c 6e 0b c8 bd
       -0.05887308 -0.15399832 0.028226532 -0.09767805
0000f0 06 e7 f0 3d b2 15 3f 3c fa 7b c7 3d 26 b4 1e be
       0.11762814 0.011662887 0.097404435 -0.15498409

value_stream.0.weight f4 [32, 64]
000000 9e ae b2 3d 94 2d 97 3d bb 0b 2c 3e 50 38 69 3d
       0.08724712 0.0738174 0.1680135 0.05693847
000010 3b 3b 65 3e 79 7b 98 3e 1b 7f dd 3d 71 5b d3 bb
       0.22385876 0.29781702 0.10815259 -0.0064501096
000020 de b2 ab 3e 4a 9d 96 be 03 bf 0b bd 4e 5a 3a 3e
       0.33534902 -0.29416877 -0.03411771 0.18198511
000030 f5 67 8c 3c 7f 8c d0 3c a1 68 1d bd 63 4b 2c be
       0.017139414 0.025457619 -0.03842986 -0.16825633
000040 0f 56 e2 3d 99 18 a6 3d 17 18 44 3e 74 49 26 3e
       0.110515706 0.081101604 0.19149815 0.16238958
000050 2e 59 8f 3d 0b 6d 2b 3d ec d8 ee 3d ee 9a 43 be
       0.069994316 0.04185204 0.11662468 -0.1910207
000060 e4 d3 cd bd 47 e3 3d bd 41 ca 06 3d 3a 5e 67 3b
       -0.100501806 -0.046359327 0.032907728 0.0035303966
000070 fa e3 23 3e 90 7b e4 3d e8 7a 84 be 12 2e 26 3e
       0.16004935 0.1115638 -0.2587502 0.16228512
000080 9e 05 87 bc 21 f8 7b 3e da dc 40 3e 9b 02 dd 3c
       -0.01648217 0.24606372 0.18834248 0.026978781
000090 82 66 93 3d 37 16 8e be e7 d1 1b be ad 28 f1 3d
       0.07197286 -0.27751324 -0.1521679 0.117753364
0000a0 af df 1d bd dd e5 2e 3d f4 0d 28 be 43 3d f2 3c
       -0.0385434 0.042699683 -0.16411573 0.029570227
0000b0 1d 4d 9a bb e4 5a ae bd 71 b3 56 3d 13 0b 19 3e
       -0.0047088997 -0.0851343 0.052417222 0.1494563
0000c0 fd 6a 92 3a 1f 88 2b 3d 67 74 e0 bd fe 58 82 3d
       0.0011170801 0.041877862 -0.10959702 0.0636463
0000d0 e6 a1 da 3d 65 1e 1f be c8 d1 6f 3b 05 8d 25 bd
       0.10675411 -0.15538938 0.0036593545 -0.04041769
0000e0 9a 3a 0b 3e dd 51 28 bd ac 44 c0 3e a5 4a 5e 3d
       0.13596573 -0.041093696 0.37552392 0.054270405
0000f0 8f 80 1a 3d c0 00 48 3e 95 e0 18 bd ee 9e a6 3d
       0.03772026 0.19531536 -0.037323553 0.08135782
000100 62 45 99 bd 90 d0 e1 bd fe 39 8b bd 17 01 4e bc
       -0.07483937 -0.11026108 -0.067981705 -0.012573502
000110 92 27 8a bc d5 90 a0 3d 18 60 be bb 6a a7 1f be
       -0.016864572 0.078401245 -0.005809795 -0.15591207
000120 03 59 d1 3c 66 2c 26 be a6 10 58 3e ce ba 61 3e
       0.02555514 -0.16227874 0.21100101 0.22043917
000130 ff 81 21 be 67 93 b3 be 65 1f 9d bc d4 96 0f be
       -0.15772246 -0.35073397 -0.01918001 -0.1402238
000140 66 bb 00 be bb d4 ba bd 12 6c 9a bd db d7 0a be
       -0.12571487 -0.09122606 -0.07540144 -0.13558905
000150 83 9c d5 3d 2b 29 98 be 8b b7 3f be db f3 a5 3e
       0.10430243 -0.2971891 -0.1872236 0.3241261
000160 d2 09 73 3d fe 8a f5 3e 1f b1 e6 3d a1 5c 14 3d
       0.059335537 0.47957605 0.11264252 0.03622115
000170 b8 be f3 bd f4 01 03 3e 70 c0 02 3f 89 50 09 3a
       -0.11901611 0.12793714 0.51074886 0.0005238136
000180 f0 45 af be 21 45 75 be 37 a0 29 3d fd de 97 be
       -0.34233046 -0.23952152 0.04141256 -0.29662314
000190 8c 4e ff 3c 39 45 31 be 23 e5 26 bd 39 46 e2 3d
       0.031165384 -0.17311563 -0.040745866 0.1104855
0001a0 bd 46 84 bd 2e bd 83 3d 65 98 c7 3c 92 56 be 3d
       -0.06458805 0.064325675 0.02436466 0.09293856
0001b0 9c 6b 62 be 7e f1 ad bd bc 10 56 3d cb c0 6d bd
       -0.22111362 -0.084933266 0.052262053 -0.05804519
0001c0 b4 52 a6 bd 6a c2 bd bd cb f7 aa ba 30 88 0f be
       -0.08121243 -0.09265597 -0.0013043819 -0.14016795
0001d0 d0 a4 c2 3d ad dc 2a be 34 45 22 3e 93 db 07 3e
       0.09504092 -0.16685744 0.15846711 0.13267355
0001e0 f4 c0 28 3e 1e cf 2d bd f4 0e 76 bb be d7 f2 bd
       0.16479856 -0.04243385 -0.0037545534 -0.11857556
0001f0 2a 3d ac bd aa 16 c9 bd 85 90 9b bd 0a 55 d8 3c
       -0.084101036 -0.09818776 -0.07595924 0.026407737
000200 19 a8 0b 3b d6 67 5b be 24 1d 9e 3e 6b 0c c9 3d
       0.002130991 -0.21426329 0.30881608 0.09816822
000210 c4 5f 53 3d 81 c6 91 bd c7 ff f9 3d f3 10 28 3e
       0.051605 -0.0711794 0.12206989 0.16412716
000220 fc ac 60 3e 81 77 a0 3d 1f 91 c7 bd 7f 77 c7 3e
       0.21940988 0.078352936 -0.097444765 0.38958356
000230 a5 01 74 3e ad 27 dd bd ee 7d 97 bd 4e 61 3b 3e
       0.23828752 -0.10798583 -0.07397066 0.18298838
000240 38 62 d1 3d 67 a7 c8 be 2f 95 14 3e df b6 80 be
       0.10223812 -0.39190218 0.14510034 -0.2513952
000250 fa 0c b1 3d 40 93 12 3e 2f df cd bd 57 de 46 3e
       0.08645053 0.14313984 -0.100523345 0.19420753
000260 82 a0 2d bd 20 de 4f 3e 3f fa ae bd 66 c9 2d be
       -0.0423894 0.20299578 -0.085438244 -0.16971359
000270 ae e4 2c 3e fe 1d 4d 3e c3 c2 04 bd a6 6c 73 bb
       0.1688411 0.20030972 -0.0324123 -0.0037143617
000280 5a 3c ed 3d 4d d3 03 be 3b ef 9d 3e 2d 70 61 be
       0.11583777 -0.12873574 0.3084658 -0.22015448
000290 7d 41 00 3d a8 21 ba 3d bd a4 0b 3e 4f 96 58 3e
       0.031312454 0.09088451 0.13637061 0.21151088
0002a0 d6 fb 01 3d c9 2d f8 3d 3c c1 66 3c c9 54 dc 3c
       0.03173431 0.12118108 0.014084157 0.026895897
0002b0 b5 db 0f be 3f 4d 73 bc e6 92 2f 3d 46 51 66 3d
       -0.14048655 -0.01484996 0.042864703 0.056229852
0002c0 66 66 0c 3e 16 5d dc bd 1c aa 49 3e 04 69 3b 3e
       0.13710937 -0.10759942 0.19693798 0.18301779
0002d0 9a 7a 4a bd 0a c7 b1 bd c3 29 56 3d 38 0d 10 3e
       -0.04943333 -0.08680542 0.05228592 0.14067543
0002e0 de 28 de 3b 2e cc 06 bd a6 74 36 3d 10 9c ef bc
       0.006779774 -0.032909565 0.04454484 -0.029249221
0002f0 f8 7a 61 3d da af 65 3e 22 5c ca bd fb 89 07 bd
       0.055048913 0.22430363 -0.09880854 -0.033090573
000300 88 2a db bc af 1a 62 3e 10 ba 24 bd 79 fe b0 bd
       -0.026753679 0.22080491 -0.040216506 -0.08642287
000310 2f 6f 99 be 28 2b 30 be 02 f4 8b bd db 41 03 bd
       -0.2996764 -0.17203963 -0.0683365 -0.032045227
000320 67 61 29 bd 79 77 0f 3e 73 8c 7c 3e 46 67 5c be
       -0.041352656 0.14010419 0.24662952 -0.2152377
000330 9d 76 54 3e 10 8e 99 3d 00 be 72 3d c9 9e 66 be
       0.20748372 0.074977994 0.05926323 -0.22521509
000340 6d 97 5e 3e d3 44 48 bc d9 88 82 3c 4b ec 19 3d
       0.21737452 -0.01222344 0.015934395 0.037578862
000350 d6 47 74 bd f7 02 9b 3d ff 02 fc bd 97 12 3a 3d
       -0.05963882 0.07568925 -0.12305259 0.045427885
000360 8a 26 47 be 2a 39 31 be 2e e3 43 3e 7a f1 a4 bc
       -0.19448295 -0.17306963 0.19129631 -0.020134676
000370 7a fb fd 3d bd 44 61 be 7a 2f fc 3b d9 09 2f bd
       0.12401481 -0.21998878 0.0076960893 -0.042734
000380 80 84 42 be 0f 78 9c bd ad a2 60 be 7c a1 b4 bc
       -0.18995857 -0.07640087 -0.21937056 -0.022049658
000390 af 08 8d bd aa 46 8f 3b 0e cd 94 3d c2 ff 2d 3e
       -0.06886422 0.0043724375 0.072656736 0.16992095
0003a0 27 91 cc bd 0f 4a 29 bd df 56 13 be 7d 38 f2 bd
       -0.09988623 -0.041330393 -0.14388607 -0.118271805
0003b0 96 f7 23 3d 4f a6 0c 3d 05 99 76 3d 03 8c cf bd
       0.04003104 0.03433829 0.060204525 -0.10134127
0003c0 4d d7 f4 bd 79 23 1f bd bb 1e 13 3e ee 62 98 3d
       -0.11955128 -0.03885219 0.14367191 0.07440744
0003d0 2d 7c fe bb 45 7e 74 be 3e ab 35 bd db 5b 0d 3e
       -0.0077662678 -0.23876293 -0.044352762 0.13804571
0003e0 26 d5 c9 bd 12 f6 fa bd 76 bd 22 3c 62 20 91 bd
       -0.09855108 -0.122539654 0.009932866 -0.07086255
0003f0 70 25 18 be 6e 54 89 3d 61 6e 74 be dc a7 53 bb
       -0.14858031 0.06705557 -0.23870231 -0.0032296097

value_stream.0.bias f4 [32]
000000 89 72 38 3e 8e d2 30 3d bb b2 6f 3e 43 fa 60 bd
       0.18012442 0.04316955 0.23408024 -0.05492617
000010 5c 66 80 bd 1d 24 1f 3d 38 58 e0 3c 8b f7 a4 bc
       -0.062695235 0.0388528 0.027385816 -0.020137569
000020 2d 38 51 39 93 af 5e 3d d8 67 0c 3d c8 39 57 bd
       0.0001995272 0.05436666 0.03427872 -0.05254534
000030 83 1b e3 3d 99 64 1e 3d 49 c1 dc bb 86 37 8e 3d
       0.11089232 0.038670156 -0.0067369086 0.06944184
000040 5b 22 89 bd 83 73 bd 3c 2e 20 08 3e a5 7c 80 3e
       -0.06696006 0.02312637 0.13293526 0.25095096
000050 bc 68 74 3e 21 08 90 3d 6c b0 0c 3e f9 c3 ab 3c
       0.23868078 0.070328005 0.13739175 0.02096747
000060 81 01 bb 3b 69 af de 3d ab 6a 0c 3d 6d 52 af 3d
       0.0057069664 0.108733006 0.034281414 0.08560643
000070 a1 99 a6 3d d7 3f fb bd 07 17 26 be 71 3a 2f be
       0.08134771 -0.12268036 -0.16219722 -0.17112137

value_stream.2.weight f4 [4, 32]
000000 e0 77 6e 3e fb 49 da bd 54 77 d8 3c e3 72 94 bd
       0.23287916 -0.10658642 0.026424088 -0.072484754
000010 57 f2 07 3d 20 b7 da 3c 00 bb 31 bd 2a d6 11 3e
       0.033190098 0.026698649 -0.043391228 0.14241853
000020 f6 b4 10 be d9 6e 88 be 5e cd a7 3e f5 25 f8 3d
       -0.14131531 -0.2664707 0.3277387 0.12116615
000030 59 98 ab 3d 0d 50 bb 3e 18 a1 b0 3b 39 37 ef bc
       0.083786674 0.3658451 0.0053902976 -0.029201137
000040 3e 15 fb ba 1d d8 3d be 4b b0 66 3e 5b 15 e5 3d
       -0.0019156111 -0.18539472 0.22528188 0.11185714
000050 32 ed 18 3e 6b ca 8c 3d f7 f9 30 3e 59 5b cc 3d
       0.14934233 0.06874546 0.17282854 0.09978361
000060 16 3a a0 3e b2 46 0e bd 9e 22 76 3e 9c f3 ae 3d
       0.31294316 -0.03473539 0.24036643 0.085425586
000070 5c 5a 0a 3e b8 1f 82 3e fa 87 f2 3a 42 b0 f8 3d
       0.13511032 0.25414824 0.0018503659 0.121429935
000080 b8 13 81 3e f4 52 6c bd 62 40 82 3e ce af 5d be
       0.25210357 -0.057696298 0.25439745 -0.21649095
000090 ba 56 08 3e d5 13 76 3e 65 79 37 bd ad f0 7d 3e
       0.13314334 0.24031003 -0.044793505 0.24798842
0000a0 85 4f 31 bd 30 74 7f bd eb d0 28 3e 30 0e 7a 3e
       -0.043288726 -0.062366664 0.16485946 0.24419475
0000b0 5a db b6 3e 7e 48 ec 3d 87 65 a9 3d c8 f0 81 3e
       0.35714227 0.11537264 0.08271318 0.25379014
0000c0 0d 54 91 3e 23 77 dd 3d 81 68 4a 3e ca 6f 55 3e
       0.28384438 0.10813739 0.19766428 0.20843425
0000d0 d9 12 83 3e d1 a0 9f 3e f2 ec 4c 3e 57 f1 c4 3d
       0.25600317 0.3117738 0.20012262 0.096163444
0000e0 ab d7 20 3e 79 84 d2 3d 16 95 38 3e a4 dc 65 3e
       0.15707271 0.102791734 0.18025622 0.22447449
0000f0 c6 30 8c 3e 78 bb b6 3c cd 1f 4f 3d a1 9c a9 3d
       0.2738096 0.022306189 0.050567437 0.08281828
000100 c8 2b f7 3d 65 e8 20 3e d6 a2 8c 3e 74 c9 e1 3d
       0.120688975 0.15713651 0.27467984 0.11024752
000110 6f 1e 83 3e 95 b1 c9 3e b5 8e c2 3d 3b 1f ad 3e
       0.25609156 0.39393297 0.094998755 0.3381289
000120 30 97 b0 3e 83 50 1e bd a8 2f d2 3d ed d6 99 3e
       0.34490347 -0.038651 0.10262996 0.30046788
000130 cc 66 87 3e 1d a8 88 3e 64 d9 59 3e d7 e2 55 3d
       0.26445615 0.2669076 0.21274334 0.052218284
000140 be d2 3f 3e 8f f4 89 bd 7d 0c 0b 3d f3 c0 83 3e
       0.18732736 -0.06736099 0.033947457 0.25733146
000150 2a ac 55 3e 2e 6b 1e 3c e1 e8 9c 3e 43 f1 c4 3e
       0.20866457 0.009669108 0.30646423 0.38465318
000160 cc 2a 7a 3e 44 61 4d 3e 33 10 6d 3e af 46 d2 3d
       0.24430388 0.20056635 0.23150711 0.10267388
000170 94 b7 3f bd 1e 79 80 3e a7 3d 96 3d e9 92 f1 3d
       -0.046805933 0.25092405 0.07335978 0.11795599
000180 ee 5c 4b 3e b4 68 72 3e 6b d1 8e 3e 54 6c d7 3c
       0.19859669 0.23672754 0.27894148 0.026296772
000190 0f cf 09 be 99 b5 76 3d 29 81 c8 3e b8 6d d4 3d
       -0.13457893 0.06023178 0.3916104 0.1037249
0001a0 6a b3 af 3e 67 89 98 bd c4 9d 83 3e 54 94 e5 bd
       0.3431657 -0.074480824 0.25706303 -0.11209932
0001b0 49 ee a0 3e e4 07 dd be ba bb ea bd 11 79 85 be
       0.31431797 -0.43170083 -0.11461587 -0.2606893
0001c0 a7 12 d0 bd c8 a9 23 3f ff 09 56 3e 75 33 b4 3d
       -0.10159808 0.6393094 0.2090225 0.08798877
0001d0 3a f2 d2 3b 64 38 27 3e be b1 c6 3e 45 a2 10 3e
       0.006437567 0.16330105 0.38807482 0.14124401
0001e0 8f 9d 51 3e da 63 f0 bc ca a7 ee 3d 07 aa 74 3e
       0.2047026 -0.029344488 0.11653097 0.23892985
0001f0 46 b8 d1 bd 28 c4 df bc e8 71 02 bf 9e d7 83 3c
       -0.102402255 -0.027315214 -0.5095506 0.016094025

value_stream.2.bias f4 [4]
000000 86 50 9b 3e f1 28 24 3e 9f bc 11 3e d6 83 86 3e
       0.30334872 0.16031243 0.1423211 0.26272458

advantage_stream.0.weight f4 [32, 64]
000000 78 22 ed bc 4e 22 dd bd 34 87 13 3e a7 5d 8e bd
       -0.0289471 -0.10797559 0.14407045 -0.069514565
000010 04 a7 32 3e 13 0a e0 3d 20 34 92 3b da b8 c3 3d
       0.17446524 0.109394215 0.00446178 0.09556742
000020 99 54 de 3c bc 1d 0d bd 71 ea 80 3c a7 c6 f0 bb
       0.027139949 -0.034452185 0.01573679 -0.0073479
000030 86 95 ec 3c 55 c9 23 3d 82 b1 e8 bc d7 3a 0e be
       0.028879892 0.039986927 -0.028404955 -0.13889633
000040 1f 2a 12 be 39 fe 99 3d de 0d 8c 3e 97 40 33 3e
       -0.1427388 0.07519192 0.2735433 0.17505108
000050 34 ed f1 3d 4f e3 0a be d5 80 5c 3c c2 77 86 3e
       0.11812821 -0.13563274 0.01345845 0.26263243
000060 0e a8 7e 3d 82 34 ba 3d c5 4e 28 be de 46 96 be
       0.06217199 0.09092046 -0.16436298 -0.29350942
000070 72 95 3e 3d bf c7 b7 3d 3d c5 b2 3e 52 4b 93 bd
       0.04652924 0.089736454 0.34916106 -0.071921006
000080 6f 7c 52 bd 0c 16 cc bd 73 08 6b bd 94 40 88 3d
       -0.0513882 -0.099651426 -0.057381105 0.06652942
000090 e5 1b ae 3c 9a 44 45 bd 24 bc 4f 3c 07 50 c3 3d
       0.021253536 -0.048161127 0.012679134 0.095367484
0000a0 3e 40 b7 3e 49 08 11 be b5 aa 8b 3d 8e 0e b3 3d
       0.357912 -0.14163317 0.06819669 0.087430105
0000b0 a8 a1 a5 3c c9 72 25 3c 8c f6 49 bd d4 1b 69 bc
       0.020218685 0.010098168 -0.04930739 -0.014227826
0000c0 04 77 bb 3d e6 e2 51 bd f4 24 a7 bc a7 ea 2b 3b
       0.0915356 -0.051241778 -0.020403363 0.0026232393
0000d0 97 37 cd 3d 54 0f 25 be 82 5e 87 3d f2 0b 54 3e
       0.100203685 -0.16119128 0.06609823 0.20707682
0000e0 19 98 83 3d b8 50 99 3d 9c 6d b8 bd c4 4c d1 bd
       0.06425495 0.07486099 -0.09005281 -0.1021972
0000f0 ba e6 42 bd 2a 94 2f be f3 40 87 bd 1d d5 14 bd
       -0.04758332 -0.17146364 -0.06604185 -0.036336053
000100 7f 95 46 3d 7e ae ff 3d 99 61 94 bd ec 8c 94 be
       0.048482414 0.124844536 -0.07245178 -0.29013765
000110 a3 a7 a8 be f4 a4 f8 3d 9f c7 0a 3d 6d 85 0d 3d
       -0.32940397 0.12140837 0.03388178 0.034551073
000120 39 9c 2c be 15 d2 66 3e 78 7c 06 be a1 63 ca bd
       -0.16856469 0.22541077 -0.13133419 -0.09882284
000130 09 54 cf bc 4e 3c 42 3d 16 68 b7 3c 7c 34 14 3d
       -0.025308626 0.047420792 0.0223885 0.036182866
000140 7b d3 e5 bd db 08 ab bd 68 e3 a2 bd 11 68 e6 3c
       -0.11221977 -0.083512984 -0.079535306 0.028125795
000150 9c d6 fc bd f6 73 a5 bd 86 f6 34 be 04 e5 06 be
       -0.12345621 -0.080787584 -0.17672166 -0.131733
000160 fa 99 3a 3e b7 fd 51 bd 7e cc 34 3e 7a 1c 34 bd
       0.182228 -0.051267352 0.17656133 -0.04397247
000170 20 cb 4a be 06 d0 82 3d 88 08 a2 3c a0 4e 72 be
       -0.19804049 0.063873336 0.019779459 -0.23662806
000180 57 f6 c4 bd 59 8a af bd 3c cc 37 be 4b 7e 11 3e
       -0.09617298 -0.085713096 -0.17949003 0.14208333
000190 bf 13 d6 bd ba 35 68 be 71 03 8c 3e 08 8d 08 be
       -0.10452985 -0.22676745 0.27346376 -0.13335049
0001a0 80 b4 03 3e 58 a7 0a be 2a 5d a4 be 0a e3 b6 3d
       0.12861824 -0.13540399 -0.3210233 0.08930023
0001b0 ec dc 8c 3d af b8 f3 3c 42 0d 82 3d 10 a7 32 3c
       0.06878075 0.02975115 0.06350185 0.010904089
0001c0 f5 1c 2c 3d 68 fd c8 3b 6d 9b 03 bd f1 a0 38 be
       0.042019803 0.006133724 -0.032130647 -0.18030144
0001d0 b1 fd fd 3c b7 d6 d9 3c de 7b 62 be ac 3a de 3c
       0.031004759 0.026591642 -0.22117564 0.027127586
0001e0 03 15 1b be d7 3a ba bd a0 e8 e0 3c 58 27 6d 3d
       -0.15144734 -0.09093254 0.027454674 0.05789885
0001f0 bf c8 11 be 04 e6 d6 bd 7a 0d 93 3d 07 53 ed bd
       -0.14236735 -0.10493091 0.07180305 -0.11588102
000200 3a 1f e0 bc 09 15 b9 3d ca 58 b0 3c c9 6c b4 bd
       -0.02735864 0.09037215 0.021526713 -0.088098116
000210 77 5c 61 be e4 d1 d0 3d dc 84 bc bc 76 71 a2 bd
       -0.22007929 0.101962835 -0.023012571 -0.07931797
000220 0e 30 43 bd ee b9 ad 3c 1a 03 61 bd cc 18 9e bd
       -0.04765325 0.021206822 -0.0549346 -0.077195734
000230 35 12 01 be f7 23 a8 3c 45 c1 63 3c ba 3c c6 3d
       -0.12604602 0.020524962 0.0139010595 0.096795514
000240 cd 2e de bd 72 f8 2c 3c f9 79 4c be f8 98 b1 be
       -0.1084877 0.010557281 -0.19968404 -0.34687018
000250 96 6c 38 be cf db 8f bc 51 1c 53 bd 7b a7 28 bd
       -0.18010172 -0.017560868 -0.051540677 -0.041175347
000260 bd 93 c2 3d 58 a4 24 be 30 8f 8c 3c 8f 47 71 bd
       0.09500835 -0.16078317 0.01715812 -0.058906134
000270 95 2c 57 be a2 7e a1 be b0 1e 99 3e dd a8 5a be
       -0.210131 -0.31541926 0.29906225 -0.21353479
000280 a8 a4 21 be 3e 55 1a bd dd 46 4c be 14 db 66 3d
       -0.15785468 -0.03767895 -0.19948907 0.056361273
000290 8b 97 7c 3d cc d6 95 3d 0f 61 9d 3e 41 2f 58 be
       0.06166796 0.0731636 0.30738112 -0.21111776
0002a0 97 78 5c 3d 5c 46 06 3d c6 38 8b 3c c8 5f e1 3d
       0.05382594 0.032781944 0.016994845 0.11004597
0002b0 76 d1 d4 3d 4a 71 98 3c 98 3d 03 3d 0d c0 c6 3d
       0.10391514 0.018608708 0.032041162 0.097045995
0002c0 ae 7a 42 3d d4 f5 a4 3c ef 67 8c 3d 42 10 57 be
       0.047480278 0.020136751 0.06855761 -0.21002296
0002d0 6a 88 e7 bd 88 11 0b bd 45 16 86 bd 01 01 bf bd
       -0.11305316 -0.033952266 -0.06547216 -0.09326363
0002e0 38 d7 0b be ef ab 74 3d 07 bf de bc c3 74 00 be
       -0.13656318 0.05973428 -0.027190698 -0.12544541
0002f0 7c 36 5c be 21 4a 75 be cb 73 95 3d dd 5f 0f bc
       -0.21505159 -0.23954059 0.072974764 -0.008750883
000300 bb 7e 21 bd 4c 3b 88 be 2f 46 02 3d c9 2d 12 be
       -0.0394275 -0.2660774 0.031805214 -0.14275278
000310 b5 2f de 3d 3d 71 bd 3c 0d 2f eb bd f5 38 d6 3d
       0.10848943 0.023125285 -0.114835836 0.104600824
000320 c3 09 cb 3e b6 fa 63 be 40 05 82 bc 51 68 9c 3d
       0.39655885 -0.22263607 -0.015871644 0.07637084
000330 d6 e8 4a be ea a7 0b 3e d5 d8 45 3d 22 e5 9c bd
       -0.19815382 0.13638273 0.04830249 -0.07660891
000340 6f c5 13 3e ac 2a 24 be 2d 30 2a 3e 8f fa a6 bd
       0.14430784 -0.16031903 0.1661994 -0.08153259
000350 9f c4 3b 3e 63 2a c9 bd 8c 66 3a 3e 4f d7 4a 3e
       0.18336724 -0.09822538 0.18203181 0.19808696
000360 95 0e 89 bd e6 78 da 3e 35 87 a0 3d 33 39 0e 3c
       -0.066922344 0.42670363 0.07838289 0.00868063
000370 71 6a 14 be 85 e5 a5 3d 79 a5 52 3d 75 8f e8 bd
       -0.14493729 0.08100418 0.05142734 -0.11355487
000380 e3 1c 89 be 53 f6 88 bd 10 2d 0f 3e 44 ce 4c be
       -0.2677985 -0.066876076 0.13982034 -0.20000559
000390 b9 54 22 bd a6 33 19 be de 88 96 be 6b fa 87 bd
       -0.03963158 -0.14961109 -0.29401296 -0.0663956
0003a0 a6 a2 5f be d7 4e ca 3d cc 25 9a bd 74 83 c9 3d
       -0.21839389 0.09878319 -0.075267404 0.09839526
0003b0 75 7d f7 bd 12 65 15 be a2 ce 9d bd fc ae 24 be
       -0.12084476 -0.14589337 -0.07705428 -0.16082376
0003c0 20 3d f4 3d fe e5 90 be 67 67 7b 3d 13 b7 28 3d
       0.11925721 -0.2830047 0.06137791 0.04119022
0003d0 ab c0 4a bd 05 14 ab bd 15 75 ef 3d 02 48 a6 3d
       -0.04950015 -0.08353428 0.116922535 0.08119203
0003e0 70 36 3c 3e 2e 1a c6 3d ae 1b b8 bd b4 0d 62 3d
       0.18380141 0.09672962 -0.089896545 0.05518885
0003f0 2d 78 a7 3e 11 fd c2 bc 99 76 2c 3e 7c e8 89 3b
       0.32708874 -0.023802312 0.16842116 0.0042086225

advantage_stream.0.bias f4 [32]
000000 eb a3 1f be 11 81 df 3d e1 8a b3 3d 40 f1 40 3d
       -0.15589873 0.10913289 0.087667234 0.047105074
000010 c4 b3 fa 3d 05 de 3c be 3b e0 02 be ac 98 49 be
       0.12241319 -0.18444069 -0.1278085 -0.19687146
000020 fb 10 37 bc 7c 36 31 be 82 67 8c 3d 66 6e f8 bd
       -0.011173482 -0.1730594 0.0685568 -0.12130432
000030 11 04 89 3d 72 bb f5 bd ff eb 07 3d 96 c4 e8 3d
       0.06690229 -0.11998643 0.033184048 0.11365621
000040 9f 59 f7 3d af 7f c3 3d 86 ba a7 bd ad 5a 04 be
       0.12077641 0.09545838 -0.081898734 -0.12925215
000050 bf 31 e4 3d 49 70 57 3d e7 a2 7c bd 8d 29 37 3d
       0.11142301 0.052597318 -0.061678793 0.04471736
000060 3d 1e 0f be 4f aa d5 bc 92 30 16 be 94 4a 60 3b
       -0.13976379 -0.026082186 -0.14666966 0.003422414
000070 a6 f5 ad 3d df 44 c0 bd be 8a d5 3c 73 33 12 3c
       0.08494119 -0.09388136 0.026067134 0.008923399

advantage_stream.2.weight f4 [4, 32]
000000 d8 a9 f4 be cf 7b 5a be 1a c1 76 be b1 7c 42 3e
       -0.4778583 -0.21336292 -0.240971 0.18992878
000010 d0 73 b9 be 8c 41 27 3d ee c2 fb 3d 81 85 75 3e
       -0.3622117 0.040833995 0.12293039 0.23976709
000020 a4 8e 58 3e 95 15 76 bc ba e7 c7 3e 87 c5 9a 3d
       0.21148163 -0.015019794 0.3904398 0.075572066
000030 ec 00 9f 3d 40 61 0e 3e ab 09 55 3e bc bb 1d 3e
       0.07763848 0.13904285 0.2080447 0.15403646
000040 07 d9 e3 3d fe 55 bf bd 05 a3 07 be 40 fb 60 bd
       0.11125379 -0.093425736 -0.13245781 -0.05492711
000050 70 ec 43 be 72 cf b0 3d 4f da 71 be d1 6b ee 3d
       -0.19133162 0.08633317 -0.23618434 0.11641658
000060 2b 59 22 bf 66 7a 95 bc 80 24 06 be 3b d0 0c 3e
       -0.6341731 -0.01824684 -0.13099861 0.13751309
000070 75 cb 9a bc 0f d9 be bc 9e 3d f1 3d 2f fa 9f bd
       -0.018895844 -0.023296861 0.11779331 -0.078113906
000080 b7 85 7b 3d 10 bc 73 be be de 15 be 0b a0 03 be
       0.061406817 -0.23802209 -0.1463575 -0.1285402
000090 62 5a bf bd d0 a1 87 be a7 47 a5 bc e0 0c 8a 3d
       -0.09343411 -0.2649064 -0.020175768 0.06740737
0000a0 03 9c dc bd 94 ac 06 be e0 71 48 3e 84 d6 96 bd
       -0.107719444 -0.13151771 0.1957469 -0.07365134
0000b0 ef 84 80 3e 6d c4 8f 3d eb 83 8c be 23 4e 0e be
       0.2510142 0.07019887 -0.27444395 -0.13896994
0000c0 6c c9 72 bd d5 77 ee bd 9b 6d 77 3e 55 0e 16 3e
       -0.059274122 -0.1164395 0.24162905 0.14653905
0000d0 b0 f3 bf 3d 59 78 21 be 4e f6 ed 3d 51 30 7d 3d
       0.093726516 -0.15768565 0.116192445 0.061813656
0000e0 51 3a 44 bc 78 01 7e 3e 9c 0d 04 be a2 df d7 3d
       -0.011976794 0.24805248 -0.12895817 0.105407014
0000f0 3d 89 90 3d bc a6 3a 3e cb 2a 00 3e 98 55 92 be
       0.07057426 0.18227667 0.12516324 -0.28580928
000100 00 fc e2 be 2d 9c b0 bd 37 a5 9e bd 82 3a 63 3e
       -0.44332886 -0.08623538 -0.07746356 0.22190288
000110 10 ef 68 be 5c bc 20 3e c5 ee 3b be b6 15 19 3e
       -0.22747445 0.15696853 -0.18352802 0.14949688
000120 9d ae 6a bd 31 9b 30 bd 27 77 a9 3c 6e 2d 87 be
       -0.05729543 -0.043116752 0.0206867 -0.26401848
000130 af 67 d2 be a9 08 d3 3d c7 c5 c5 bd e3 79 f7 ba
       -0.4109473 0.10304386 -0.09656864 -0.001888093
000140 a2 02 c0 3d 44 d8 9c 3d 30 51 29 bd a6 f9 d5 bd
       0.09375502 0.07658437 -0.041337192 -0.10448007
000150 c2 07 0c 3e 02 b8 9c 3d 13 84 82 bd 7e 52 c7 3c
       0.13674834 0.07652284 -0.063728474 0.024331328
000160 ca 02 7c be b8 66 b1 3d ba 43 8a 3c 6f 15 3e be
       -0.24610439 0.0866217 0.016877998 -0.18562864
000170 96 ac 67 bd 03 0d 63 3e 3a 13 1f 3e 28 e5 15 3e
       -0.056561075 0.22172932 0.15534678 0.14638197
000180 35 07 3e 3e cc 3d 89 be be 64 d2 bd 9f b3 55 3e
       0.18557437 -0.2680496 -0.10273121 0.20869301
000190 07 b6 d6 bd 48 96 8b 3d c2 dc b4 be 18 b2 12 3d
       -0.10483938 0.06815773 -0.35324675 0.035814375
0001a0 a9 10 87 3c d3 b0 87 be 9d 15 94 3d 27 d8 dd 3d
       0.016487436 -0.26502094 0.07230685 0.108322434
0001b0 f6 19 a9 3e 61 6a 28 bc f2 53 8a be ae 12 a6 3e
       0.3302762 -0.010279269 -0.2701717 0.32436126
0001c0 4e c7 16 bd dc f1 00 be 96 51 37 be e7 5b ce 3d
       -0.036811166 -0.12592262 -0.17902216 0.10076123
0001d0 d2 07 0d 3d 85 39 dd bd 3b 03 d8 3d 9f 24 81 3e
       0.034431286 -0.108019866 0.10547491 0.25223252
0001e0 30 f5 0e bd be da 16 be df 5a 3e 3d 7e 5a 2e 3e
       -0.034901798 -0.14731881 0.04647338 0.17026708
0001f0 f5 5c 3f be 42 9c ad bd dd 1a 08 be fd 76 eb be
       -0.18687804 -0.084770694 -0.13291498 -0.45989218

advantage_stream.2.bias f4 [4]
000000 ec 19 12 3e f8 d3 6e 3d 79 e4 78 3d 6c f9 cd 3d
       0.14267701 0.058307618 0.060764764 0.10057339
