PER_params.pth (torch, 29855 bytes, 6 tensors)

fully_connected_1.weight f4 [64, 37]
0	0xbd1401a5	-0.03613438
1	0x3dc8727b	0.097874604
2	0x3ad7e481	0.0016471298
3	0xbe88d946	-0.26728266
4	0xbdbb96b5	-0.091596045
5	0xbbc33e59	-0.00595836
6	0x3d3eb75c	0.046561584
7	0x3e09c6a2	0.13454679
8	0x3d7a26c3	0.061072122
9	0x3c67f8e9	0.014158466
10	0x3d7c9580	0.06166601
11	0xbd88e985	-0.06685165
12	0xbe71e0c9	-0.23620905
13	0xbe6b8e60	-0.2300353
14	0xbe469925	-0.19394358
15	0x3dc9b3a6	0.09848718
16	0xbc1de00b	-0.009635936
17	0x3b01ddf1	0.0019816125
18	0x3d53b7eb	0.05168907
19	0x3d4d7d20	0.050168157
20	0x3d9c2ca7	0.07625704
21	0x3dcfb8e2	0.101426855
22	0x3e1baade	0.152019
23	0xbd3c35d3	-0.04594977
24	0xbd81b5ae	-0.06333481
25	0x3a939ea1	0.0011262485
26	0x3e1f08aa	0.15530649
27	0xbd6eb2d0	-0.058275998
28	0xbe5ac482	-0.21364024
29	0xbbdec832	-0.0067987675
30	0x3dcb7423	0.09934261
31	0x3dadd6ec	0.08488259
32	0xbe724aea	-0.2366139
33	0xbe285462	-0.1643844
34	0xbe9193ab	-0.28432974
35	0xbca3f212	-0.020012889
36	0xbd61500f	-0.05500799
37	0x3e82401c	0.25439537
38	0xbd71862d	-0.05896585
39	0xbd86b607	-0.06577688
40	0x3dd00ba8	0.10158473
41	0xbeafa2da	-0.34303933
42	0xbda1b7c4	-0.07896379
43	0xbe25a939	-0.16177835
44	0xbd7ec5ca	-0.062200345
45	0xbd8f0f40	-0.069853306
46	0x39874e58	0.00025807577
47	0x3baab523	0.0052095815
48	0xbdc0addf	-0.09408163
49	0xbcf8cbe4	-0.03037066
50	0x3e0df4aa	0.13862863
51	0x3d44db8d	0.048060942
52	0x3dac19fb	0.08403393
53	0x3b7225c7	0.0036948787
54	0x3d0eb1aa	0.034837402
55	0xbe212622	-0.15737203
56	0xbe6e53cd	-0.23274155
57	0xbe5366f2	-0.2064474
58	0xbd01d1ec	-0.031694338
59	0xbe071ebc	-0.13195318
60	0xbc03b791	-0.008039371
61	0x3dc544cd	0.09632263
62	0x3cdc52ae	0.026894893
63	0xbc880b50	-0.016606957
64	0x3d8a3e40	0.067501545
65	0xbe8818d0	-0.2658143
66	0xbd9ee76f	-0.07758986
67	0x3d915a7e	0.07097338
68	0x3bd76ed2	0.00657449
69	0x3dd074e0	0.10178542
70	0xbe0832d3	-0.13300638
71	0xbe9fa58c	-0.3118099
72	0x3e1f9dee	0.15587589
73	0x3d64502d	0.055740524
74	0x3cd6bf68	0.026214316
75	0x3deeb016	0.116546795
76	0x3e166a28	0.14688933
77	0x3d9509bb	0.072772466
78	0x3e19a92a	0.15005937
79	0xbf401da9	-0.7504526
80	0x3c825ce2	0.01591343
81	0x3e73bd72	0.23802736
82	0x3e421617	0.18953739
83	0xbe0d33da	-0.13789311
84	0xbe1b4c6d	-0.15165873
85	0x3cb3812a	0.021912176
86	0x3da65e79	0.08123488
87	0x3df29718	0.11845225
88	0x3e811f84	0.25219357
89	0xbde64d4b	-0.11245211
90	0xbc3f7ffc	-0.011688229
91	0x3e155387	0.14582644
92	0x3e83bb59	0.25728872
93	0x3d9b55d7	0.07584732
94	0xbe618b5d	-0.22025819
95	0x3c9e1b95	0.019300262
96	0x3b946c06	0.004529479
97	0x3c724bd8	0.01478859
98	0x3db47f2c	0.088133186
99	0xbe415d41	-0.1888323
100	0x3e43b9be	0.19113824
101	0x3e1cee6c	0.15325326
102	0x3d5b63dd	0.053562034
103	0x3c84bf93	0.016204631
104	0xbe286a12	-0.16446713
105	0xbd84c4e0	-0.064828634
106	0xbc49dfdd	-0.01232144
107	0xbd63f92f	-0.055657562
108	0x3d027d8d	0.031858016
109	0x3c0f0673	0.008729565
110	0xbc34dd05	-0.011039023
111	0x3d993a8f	0.07481872
112	0x3db9ab66	0.09065895
113	0x3dbe0774	0.09278765
114	0x3dc8fab3	0.09813442
115	0x3c1d0c44	0.009585444
116	0x3d750288	0.059816867
117	0x3b052a7f	0.002031952
118	0x3dc25b7b	0.09490105
119	0x3db187e9	0.08668501
120	0x3d7d38c2	0.061821707
121	0x3d9e33bd	0.07724712
122	0x3d1133c6	0.035449766
123	0xb992abd7	-0.0002797532
124	0xbd4b53d5	-0.049640495
125	0xbe210a33	-0.15726547
126	0xbdf6502a	-0.12027009
127	0x3c98f3c6	0.018670928
128	0xbd0c9389	-0.034320388
129	0xbd2d8e04	-0.042371765
130	0x3c8aa637	0.01692496
131	0x3eb02ed8	0.3441074
132	0xbeeb0cdd	-0.4590825
133	0xbea5bcc3	-0.32370576
134	0xbe7eda3a	-0.24887934
135	0xbfc310eb	-1.5239538
136	0x3c9498d2	0.018139277
137	0x3d3243ed	0.04352181
138	0x3d9fab41	0.07796336
139	0x3dda9854	0.106735855
140	0x3d9e2d98	0.0772354
141	0x3deb6283	0.11493399
142	0x3e340606	0.17580423
143	0x3d87d045	0.06631521
144	0xbcd3282e	-0.025775995
145	0xbe3896ce	-0.18026277
146	0x3c4964a2	0.012292059
147	0x3ac6bbb9	0.0015162147
148	0xbc877757	-0.016536398
149	0xbe122731	-0.14272763
150	0xbe268c7f	-0.16264533
151	0xbdd655c2	-0.10465576
152	0x3cd355b7	0.025797708
153	0x3e9fb973	0.31196174
154	0xbd84d214	-0.06485382
155	0xbe6ce760	-0.23135138
156	0xbecbb4fd	-0.3978652
157	0xbfaf3af4	-1.3689866
158	0xbb9d9105	-0.0048085474
159	0xbd8793d9	-0.066199966
160	0x3d452a19	0.04813585
161	0xbdc28830	-0.09498632
162	0xbdf059a2	-0.11735846
163	0xbd921c7f	-0.071343414
164	0xbd50af4c	-0.050948426
165	0xba9bc7bf	-0.001188509
166	0x3ca47e36	0.020079713
167	0x3de9987a	0.11406036
168	0xbe03603f	-0.12829684
169	0x3dc4a4c3	0.09601738
170	0xbd0cf1e0	-0.034410357
171	0x3d82654e	0.063669786
172	0x3e8209d2	0.25398117
173	0x3db56a4b	0.088581644
174	0xbd4aa0b8	-0.04946968
175	0x3d39abde	0.04532992
176	0x3ca893da	0.020578314
177	0xbcb191b3	-0.02167592
178	0x3cf51069	0.029915052
179	0x3c327b55	0.010893662
180	0x3dddf8a5	0.10838441
181	0x3e5ffe90	0.21874452
182	0x3e33aca9	0.17546333
183	0x3a53ac36	0.00080746727
184	0xbbd0c3a0	-0.0063709766
185	0xbd1275d3	-0.035756897
186	0xbe0068ca	-0.12539974
187	0x3c07ff56	0.008300623
188	0x3d599f92	0.053130694
189	0x3dc2b926	0.095079705
190	0x3e52b0c5	0.20575245
191	0xbd9bafad	-0.07601867
192	0xbeae6a15	-0.3406531
193	0xbe99c253	-0.3003107
194	0xbf73cd43	-0.9523508
195	0xbdc2a28d	-0.0950366
196	0xbdd10021	-0.10205103
197	0x3cd22c5e	0.025655922
198	0xbdb32629	-0.08747513
199	0xbacb8205	-0.001552642
200	0x3d6fcaf0	0.058543146
201	0x3d0b3fb1	0.033996288
202	0xbdec64f9	-0.115426965
203	0xbe0af290	-0.13569093
204	0x3cafac62	0.021444503
205	0x3e53fba0	0.20701456
206	0xbda71011	-0.08157361
207	0x3c919cd6	0.01777498
208	0xbd2aa9fb	-0.041666012
209	0x3cc2fc1d	0.023801858
210	0x3da0f563	0.07859304
211	0xbdc7988f	-0.09745895
212	0xbd209977	-0.039208855
213	0xbe09014b	-0.133794
214	0xbcd00b27	-0.025395943
215	0x3ceb75e2	0.028742734
216	0xbda0a55a	-0.07844038
217	0xbe08c9cf	-0.13358234
218	0x3d66051d	0.05615722
219	0xbe0f3ff4	-0.1398924
220	0x3e07eeb6	0.13274655
221	0x3d9f8444	0.077888995
222	0x3a4f1702	0.0007899852
223	0xbcdf9b9e	-0.027295884
224	0xbe11879f	-0.14211892
225	0x3d31dd58	0.04342398
226	0x3d8f0535	0.06983415
227	0xbe03b8b2	-0.12863424
228	0xbd7534ed	-0.059864927
229	0xbbf2e304	-0.0074123163
230	0x3d29944a	0.041401185
231	0x3e742ecf	0.23845981
232	0xbd2756f0	-0.040854394
233	0xbd6efc43	-0.058346044
234	0x3e446cd4	0.1918214
235	0x3de87e01	0.11352158
236	0x3daca651	0.0843016
237	0xbea8fa32	-0.33003384
238	0x3d316719	0.043311212
239	0x3b44c998	0.0030027386
240	0x3cb9a4a0	0.022661507
241	0x3e2632ce	0.16230318
242	0xbe074c01	-0.13212587
243	0xbce13648	-0.027491704
244	0xbcbe3745	-0.023219714
245	0xbdc84051	-0.097778924
246	0x3e3e8a60	0.18607473
247	0xbd995d75	-0.07488529
248	0xbc806069	-0.015670972
249	0xbe730f35	-0.2373627
250	0x3c38be4f	0.011275842
251	0xbc6ced8f	-0.014460935
252	0xbd6fa143	-0.0585034
253	0xbd924544	-0.071421176
254	0xbe47f5f2	-0.19527414
255	0x3e84a2ed	0.25905553

fully_connected_1.bias f4 [64]
0	0x3e104189	0.140875
1	0xbd852e6d	-0.06502996
2	0xbe07aed5	-0.13250287
3	0x3c15cdc6	0.0091432985
4	0x3e2d9cba	0.16954318
5	0xbd81b659	-0.06333608
6	0xbe03166e	-0.12801525
7	0x3d961936	0.07329027
8	0xbdd148d1	-0.10218967
9	0xbe28ee1d	-0.16497083
10	0x3dd73823	0.10508754
11	0x3dd4c8cf	0.10389864
12	0x3e28edaa	0.16496912
13	0x3dd68a46	0.10475592
14	0xbc32bb55	-0.010908921
15	0xbd9fc0a1	-0.07800413
16	0xbcc814c4	-0.024423964
17	0xbc922307	-0.017838968
18	0xbbbb75de	-0.005720838
19	0xbe7919f7	-0.24326311
20	0xbe1a983b	-0.15097134
21	0xbd06adf2	-0.03288073
22	0xbd2e8ffc	-0.042617783
23	0xbd5a6e07	-0.053327587
24	0xbe168161	-0.14697792
25	0x3df490dc	0.11941692
26	0xbc059ae7	-0.008154607
27	0xbe1ff9b7	-0.15622602
28	0x3e21eeb5	0.15813716
29	0x3e1ed631	0.15511395
30	0xbd2a1e2a	-0.041532673
31	0xbe08321b	-0.13300364
32	0x3dee2099	0.11627311
33	0xbb075712	-0.0020651263
34	0xbded1beb	-0.115775906
35	0x3ca784a6	0.020448994
36	0xbd89d59e	-0.06730197
37	0x3d19acb5	0.037518222
38	0xbdf727b4	-0.1206812
39	0xbdd7512d	-0.1051353
40	0xbd20c573	-0.039250802
41	0xbd1b1d7a	-0.037869908
42	0xbe1ffb55	-0.1562322
43	0x3e0605ad	0.13088103
44	0xbd187272	-0.03721852
45	0xbe1cbaf9	-0.153057
46	0x3d3203bb	0.04346059
47	0xbe4c4685	-0.19948776
48	0xbe0e4710	-0.13894296
49	0x3d444c2a	0.0479242
50	0xbddb1a96	-0.1069843
51	0xbc2c6348	-0.010521717
52	0xbd826438	-0.063667715
53	0xbe00d281	-0.12580301
54	0xbe567b3a	-0.20945445
55	0xbd122cc3	-0.03568722
56	0x3ccf0e28	0.025275305
57	0xbd8027be	-0.0625758
58	0xbe4b83a2	-0.19874433
59	0xbe038f38	-0.12847602
60	0xbca73ea0	-0.020415604
61	0x3d947b0a	0.0725003
62	0x3c4b42e2	0.012406083
63	0x3b0fac30	0.00219227

fully_connected_2.weight f4 [64, 64]
0	0x3df2875e	0.118422255
1	0xbd664b79	-0.05622432
2	0xbe51c110	-0.20483804
3	0x3d43e3d6	0.047824703
4	0x3df5b9b3	0.1199831
5	0xbe95959c	-0.29215705
6	0x3ca261eb	0.019822082
7	0xbda8b23e	-0.08237122
8	0xbeb9b7a8	-0.3627293
9	0x3e8d0e2b	0.27549872
10	0xbc2055c0	-0.009786069
11	0xbdbe0b3e	-0.09279488
12	0xbe627c54	-0.2211774
13	0x3e2fc1f5	0.17163832
14	0xbf054759	-0.5206199
15	0xbe9eb4c5	-0.3099729
16	0xbde8529e	-0.11343883
17	0xbe54ce58	-0.20781839
18	0x3d854641	0.065075405
19	0xbd52d7dc	-0.05147539
20	0xbe83a5c8	-0.2571242
21	0x3d465ca2	0.048428185
22	0x3e4b9573	0.19881229
23	0xbecc285e	-0.39874548
24	0xbdb9008d	-0.09033308
25	0x3d901a1f	0.07036232
26	0x3e0aedd9	0.13567294
27	0xbd066c11	-0.032817904
28	0xbc95df9b	-0.0182951
29	0x3d6f3ed1	0.058409516
30	0xbdff8da1	-0.124781854
31	0xbe50503d	-0.20343108
32	0xbd236835	-0.0398943
33	0xbdc25266	-0.094883725
34	0x3c5ca11a	0.013466144
35	0xbe7be629	-0.24599518
36	0xbf3e5632	-0.74350274
37	0x3e81d31d	0.2535638
38	0xbde894a6	-0.113564774
39	0xbe8fd537	-0.28092358
40	0x3dcec059	0.10095281
41	0xbe28cb68	-0.16483843
42	0x3d7c3df4	0.06158252
43	0xbdb6dfa4	-0.08929375
44	0xbc9ed901	-0.019390585
45	0xbe4560eb	-0.19275253
46	0xbf1c0c4a	-0.6095625
47	0xbd8ae20d	-0.06781397
48	0xbe8a3b6a	-0.26998454
49	0xbed49dbe	-0.41526598
50	0xbd3b7da4	-0.045774117
51	0xbe69b4ce	-0.22822878
52	0xbeecda43	-0.4626027
53	0xbe1b9975	-0.15195258
54	0xbdcb6119	-0.09930629
55	0xbe2874c8	-0.16450799
56	0xbe5f306d	-0.21795817
57	0x3ca40f99	0.020026969
58	0xbe1791d9	-0.1480173
59	0xbe9a0fa2	-0.30090052
60	0x3d35382b	0.04424302
61	0x3dea84eb	0.11451133
62	0xbe99c5df	-0.30033776
63	0xbbc3072d	-0.005951783
64	0x3dd497f6	0.10380547
65	0x3c8d4ea2	0.01724941
66	0xbe3d626e	-0.18494579
67	0xbc9606f4	-0.018313862
68	0x3d418026	0.047241352
69	0x3c9efb2d	0.01940688
70	0xbe985f06	-0.29759997
71	0x3e4c2043	0.19934182
72	0xbe10150c	-0.14070529
73	0xbdecc2db	-0.11560603
74	0xbcef737b	-0.02922987
75	0x3da963ed	0.082710125
76	0xbe3eab5c	-0.18620056
77	0x3e21875d	0.15774293
78	0xbd2ba438	-0.041904658
79	0x3dd9ab4a	0.10628374
80	0x3e263164	0.16229779
81	0xbbebd7d1	-0.007197358
82	0xbd42c5bf	-0.047551867
83	0xbe980015	-0.29687563
84	0xbb7ed33a	-0.0038883225
85	0xbe719eae	-0.23595688
86	0xbbb1db14	-0.0054277275
87	0xbdfd9cf5	-0.12383453
88	0x3c88e5d4	0.016711153
89	0x3bfa0ee7	0.007631171
90	0xbebc4eb1	-0.36778787
91	0xbea4fd24	-0.3222438
92	0x3dd5356c	0.1041058
93	0x3d99f8dd	0.0751817
94	0x3dd34c6a	0.10317309
95	0xbdd51b5d	-0.1040561
96	0xbd75774f	-0.059928235
97	0x3e14907f	0.14508246
98	0x3c1edfdf	0.00969693
99	0xbea83112	-0.32849938
100	0x3bc2562d	0.005930683
101	0xbe215563	-0.15755229
102	0x3dc3642e	0.09540592
103	0xbc8e43fe	-0.017366406
104	0x3ddd6229	0.10809738
105	0x3deb0e06	0.11477284
106	0xbde3ad25	-0.11117009
107	0xbd478c36	-0.0487177
108	0xbdc84d29	-0.09780342
109	0xbda43bf8	-0.08019251
110	0xbe08cf52	-0.13360336
111	0xbe37e4f3	-0.17958431
112	0xbd8ecadc	-0.06972286
113	0xbe7596e2	-0.23983338
114	0x3d0b1a92	0.033960886
115	0xbcb962ae	-0.022630062
116	0xbd880a8a	-0.06642635
117	0xbc778e59	-0.015109622
118	0xbe4b4977	-0.19852243
119	0x3c2de858	0.010614477
120	0xbe10d9c0	-0.14145565
121	0x3c68f4f7	0.01421856
122	0x3de00d6e	0.109400615
123	0x3da2da02	0.07951738
124	0xbe59eca8	-0.21281683
125	0x3dbe5d9d	0.09295199
126	0xbd3f7798	-0.046744913
127	0xbde48479	-0.1115808
128	0xbdd56292	-0.104191914
129	0xbe7f56cd	-0.24935456
130	0x3cb6da9f	0.022321044
131	0xbc9a8a14	-0.018864669
132	0x3d255dca	0.040372647
133	0xbe250b9a	-0.16117707
134	0x3ceb5596	0.028727334
135	0x3d219d35	0.039456565
136	0x3e14c737	0.1452912
137	0x3b10bcad	0.0022085116
138	0xbe1d3ff7	-0.15356432
139	0x3dceb800	0.10093689
140	0x3d75482e	0.05988329
141	0x3c236703	0.00997329
142	0x3dff69ce	0.124713525
143	0x3db6116d	0.088900425
144	0x3c83d8e2	0.016094629
145	0xbd05c353	-0.03265698
146	0x3db98de3	0.09060266
147	0xbc5593b1	-0.013035701
148	0xbdeafdd8	-0.11474198
149	0x3dfe79cf	0.12425577
150	0xbc5e0034	-0.013549853
151	0xbd114cf1	-0.035473768
152	0xbc79ab60	-0.015238613
153	0xbe1663cc	-0.14686507
154	0x3cae1e9b	0.021254828
155	0xbee0f4fe	-0.43936914
156	0x3d50f7fa	0.05101774
157	0xbc0f97ce	-0.00876422
158	0xbcd64109	-0.026154058
159	0xbda8cb54	-0.08241907
160	0xbda85486	-0.082192466
161	0xbe2247e5	-0.15847738
162	0xbe27fad3	-0.16404276
163	0x3e3d201c	0.1846928
164	0x3df8e2d8	0.12152642
165	0xbe795e00	-0.24352264
166	0x3e453034	0.1925667
167	0xbde4a029	-0.111633606
168	0x3ce37e60	0.027770221
169	0x3da1fd36	0.07909624
170	0xbdce162c	-0.10062823
171	0xbdc107ff	-0.09425353
172	0xbd5bebaf	-0.053691562
173	0x3db67293	0.08908572
174	0x3d87470f	0.0660535
175	0xbde28990	-0.11061394
176	0xbe89fe80	-0.2695198
177	0xbdd8534c	-0.105627626
178	0xbdd41f43	-0.10357525
179	0xbe1d184f	-0.15341304
180	0xbe883688	-0.26604104
181	0x3e074cda	0.1321291
182	0xbec04113	-0.37549648
183	0xbeabb890	-0.33539248
184	0xbe17ae4c	-0.14812583
185	0xbe8a9ad5	-0.27071252
186	0x3d34089c	0.043953523
187	0x3db3bfdc	0.08776829
188	0xbcf8fd0e	-0.030394103
189	0x3e64b739	0.22335519
190	0x3cbc3e36	0.022978883
191	0xbda4b8dd	-0.080430724
192	0x3d1cb31a	0.038256742
193	0xbe4e327a	-0.20136443
194	0xbe0b2a57	-0.1359037
195	0x3dd767d5	0.10517851
196	0xbe01dcae	-0.12681839
197	0xbe222f84	-0.15838438
198	0xbd9ca230	-0.07648122
199	0xbea19a43	-0.31563005
200	0xbe68274d	-0.22671242
201	0xbe224a03	-0.15848546
202	0x3d145b6e	0.036220007
203	0x3db3b1b8	0.087741315
204	0xbdc9139e	-0.09818195
205	0x3d654980	0.0559783
206	0xbd219ab5	-0.03945418
207	0xbe1a7de3	-0.15087084
208	0x3d0ada32	0.033899494
209	0x3e3766bf	0.17910288
210	0x3dcdc264	0.10046843
211	0xbe5815e1	-0.21102096
212	0x3dae3a53	0.08507218
213	0x3dc4c51f	0.0960791
214	0xbe06a68a	-0.13149467
215	0x3e50bfe1	0.20385696
216	0xbd757e53	-0.059934925
217	0x3da6860a	0.08131035
218	0x3e047bda	0.1293787
219	0x3dce855b	0.10084029
220	0x3e5f7405	0.21821602
221	0xbe83ef1d	-0.25768366
222	0xbd873036	-0.066009924
223	0xbddcb117	-0.10775965
224	0xbd34b90d	-0.04412179
225	0xbe750a11	-0.23929621
226	0x3d8501f1	0.06494511
227	0x3ddeb542	0.10874416
228	0xbe2d90ee	-0.16949818
229	0x3dd49d27	0.10381537
230	0x3e08cefd	0.1336021
231	0xbe2a1abe	-0.16611764
232	0x3d38e352	0.045138665
233	0x3e288a6d	0.16459055
234	0x3e0a1ca5	0.1348749
235	0x3cb2ffcf	0.021850495
236	0x3d093675	0.0334992
237	0xbe7537b6	-0.23947033
238	0xbcc2edbd	-0.023795003
239	0xbc8fc384	-0.017549284
240	0xbd9fb57c	-0.07798287
241	0xbe0a9c23	-0.13536124
242	0xbcd74889	-0.026279705
243	0xbbb0c48c	-0.005394524
244	0x3dd9fdb0	0.1064409
245	0x3ef819e9	0.48457268
246	0xbdcfc062	-0.10144116
247	0x3d7154ba	0.058918692
248	0xbe361ed1	-0.17785193
249	0xbe864847	-0.26227018
250	0xbe3d2d18	-0.18474233
251	0x3e272fb1	0.16326787
252	0xbe5e1021	-0.2168584
253	0xbd80d733	-0.06291046
254	0xbd5446f7	-0.05182549
255	0xbe29cdae	-0.16582367

fully_connected_2.bias f4 [64]
0	0xbd3d0aa8	-0.04615274
1	0xbc2c96ac	-0.01053397
2	0x3d1d2d8f	0.038373526
3	0xbdd7c25d	-0.10535119
4	0x3df7d02c	0.121002525
5	0xbe3afcf3	-0.18260555
6	0xbe038746	-0.12844571
7	0x3c45cdfb	0.012073035
8	0x3d88a1f5	0.06671516
9	0x3e97eec4	0.2967435
10	0xbd74d5e3	-0.05977429
11	0x3e34ccec	0.17656296
12	0x3d00ba53	0.031427693
13	0xbcc8be3e	-0.024504777
14	0xbd9fa444	-0.07795003
15	0x3d65916f	0.0560469
16	0xbd3c4603	-0.045965206
17	0xbdfd46c8	-0.12367016
18	0xbd6132cd	-0.054980088
19	0x3daabf7b	0.08337303
20	0x3e3599f1	0.17734505
21	0x3db2b129	0.08725197
22	0xbca6fb6d	-0.020383561
23	0xbddfb76e	-0.10923658
24	0xbdaa8039	-0.08325238
25	0xbdf0720f	-0.11740505
26	0x3d0e831d	0.034793008
27	0xbd887d3b	-0.06664511
28	0xbe12b050	-0.1432507
29	0x3e5432e1	0.20722534
30	0x3d63b8cf	0.05559617
31	0xbcf5c441	-0.030000808
32	0x3c133ff6	0.008987417
33	0x3e10e0f0	0.14148307
34	0x3d55916d	0.052140642
35	0x3d7ea553	0.062169384
36	0xbc303dae	-0.010756893
37	0xbd56a68d	-0.05240493
38	0xbd1fdb66	-0.039027594
39	0x3b26cfd8	0.0025453474
40	0xbce1592d	-0.027508343
41	0x3ebe9ba3	0.37228116
42	0x3d297236	0.041368686
43	0xbcb912a7	-0.022591902
44	0x3cbaef9d	0.022819335
45	0xbd101aa0	-0.03518164
46	0xbc03e49e	-0.008050112
47	0xbdb67173	-0.089083575
48	0x3ddfb334	0.10922852
49	0xbd11ced3	-0.035597634
50	0xbdab2c86	-0.083581015
51	0x3e57b6fd	0.21065898
52	0xbe41b1d2	-0.1891549
53	0xbcb717dd	-0.022350246
54	0x3d6da7e6	0.05802145
55	0x3bafaac8	0.005360935
56	0xbe00c113	-0.12573652
57	0xbe11e918	-0.14249074
58	0x3d70d21c	0.058794126
59	0xbdc83bd9	-0.0977704
60	0x3d4ff761	0.05077303
61	0x3e2e9b56	0.17051443
62	0x3d8efb6e	0.0698155
63	0xbde93775	-0.11387531

fully_connected_3.weight f4 [4, 64]
0	0xbf3fc5ed	-0.74911386
1	0x3cf1a3b1	0.029497
2	0x3d83407a	0.06408782
3	0xbf0f650d	-0.56013566
4	0x3e03e151	0.1287892
5	0xbf4f207b	-0.80908936
6	0x3de8d526	0.1136878
7	0x3e6db469	0.23213352
8	0x3e3c1695	0.1836799
9	0x3d6f32e3	0.05839814
10	0xbcd98565	-0.026552865
11	0x3e0da93c	0.13834089
12	0x3ea61f11	0.32445577
13	0x3e3f6970	0.18692565
14	0xbdcdfbbf	-0.100577824
15	0xbe4509db	-0.19242041
16	0xbe1048fc	-0.14090341
17	0x3e3e0f39	0.18560494
18	0x3e9b1588	0.30289865
19	0x3e16561f	0.1468129
20	0x3d3c64c9	0.045994554
21	0x3e5d5e26	0.21617946
22	0x3df9784c	0.12181148
23	0xbe37a801	-0.17935182
24	0xbe7a4a22	-0.24442342
25	0xbdba5849	-0.0909887
26	0xbd050ba4	-0.032481804
27	0x3d038de8	0.032117754
28	0x3c4aeb1b	0.012385155
29	0x3db5ff7e	0.08886622
30	0xbd5a8792	-0.053351946
31	0x3d90874b	0.07057055
32	0x3cec61fe	0.02885532
33	0x3df0e00f	0.11761486
34	0x3d9b068b	0.07569607
35	0x3e9a943f	0.30191228
36	0xbb809af3	-0.0039247214
37	0xbe14b3ca	-0.14521709
38	0x3dd0b52e	0.10190807
39	0x3e160a6b	0.14652412
40	0x3e93fc1c	0.28903282
41	0x3db7f50b	0.08982285
42	0x3e6a7a4e	0.22898218
43	0x3db0bf54	0.08630243
44	0x3d009513	0.03139217
45	0x3c973f9d	0.01846295
46	0x3d4b5040	0.04963708
47	0x3dee96fd	0.116498925
48	0xbd28c2d5	-0.04120143
49	0x3e417066	0.18890533
50	0xbec48e92	-0.38390023
51	0x3e648b96	0.22318873
52	0xbd051651	-0.032491986
53	0x3e292738	0.16518867
54	0x3d5f992d	0.05458944
55	0xbdf64d92	-0.12026514
56	0xbd43bcbb	-0.04778741
57	0x3cae52a0	0.021279633
58	0x3eac8800	0.3369751
59	0x3d71b9fb	0.059015255
60	0xbe3d7167	-0.18500291
61	0x3e0e1c2f	0.13877939
62	0x3e0a25fb	0.13491051
63	0x3e4dfde1	0.20116378
64	0xbd8e6c9d	-0.0695431
65	0x3dc4159d	0.09574435
66	0x3e02fcff	0.12791823
67	0xbc2bb619	-0.010480427
68	0x3da7158e	0.08158408
69	0x3e170c5a	0.14750805
70	0x3ae18480	0.0017205626
71	0x3d125ca4	0.03573288
72	0x3d03998e	0.032128863
73	0x3d8aa14f	0.067690484
74	0x3e0c998a	0.13730446
75	0x3dae992e	0.085253105
76	0x3e39c2e0	0.18140745
77	0x3e94c481	0.2905617
78	0xbe192ee7	-0.14959298
79	0x3c5d9bce	0.013525916
80	0x3e6411d2	0.22272423
81	0x3e91a5e6	0.28446883
82	0x3de38ab2	0.111104384
83	0x3d52d182	0.051469333
84	0x3dc2d8ea	0.09514029
85	0x3e4bc349	0.19898714
86	0x3d86f59d	0.06589816
87	0x3d1bae19	0.03800783
88	0xbd402ff7	-0.046920743
89	0xbd9a9adf	-0.075490706
90	0x3e0121a4	0.12610489
91	0xbdd1cc53	-0.1024405
92	0xbd2a3e76	-0.041563474
93	0x3df66ea4	0.12032822
94	0x3d5b54a2	0.05354751
95	0x3e2523f5	0.16126998
96	0x3e79a6dd	0.2438006
97	0x3cf84d9d	0.030310446
98	0x3e2aa4c8	0.16664422
99	0x3ec8bd38	0.39206862
100	0x3e6a586c	0.22885293
101	0xbe053b08	-0.130108
102	0x3c834cc2	0.016027812
103	0x3d97086f	0.073746555
104	0x3e3be452	0.18348816
105	0x3e19b403	0.15010075
106	0x3e5613ff	0.20906065
107	0x3d53971e	0.05165779
108	0xbd52d475	-0.051472146
109	0xbcaaaedd	-0.020835334
110	0x3cb13aa9	0.021634417
111	0x3d8e5d7e	0.06951426
112	0x3cb83516	0.02248625
113	0x3e26e30e	0.16297552
114	0xbe15f6c4	-0.14644915
115	0x3e1ca1cc	0.15296096
116	0xbdd15315	-0.10220925
117	0x3e12194f	0.14267467
118	0x3c12a29f	0.008949905
119	0x3e66951f	0.22517823
120	0xbd95c5de	-0.07313131
121	0xbe13500c	-0.14386004
122	0x3dd50bd4	0.10402647
123	0xbd83a6a3	-0.06428268
124	0xbde862b6	-0.113469526
125	0x3ceb023e	0.028687593
126	0x3d488170	0.048951566
127	0xbd04c4b8	-0.032414168
128	0x3d431387	0.047626045
129	0x3e46a27b	0.19397919
130	0x3dd3f267	0.10348969
131	0x3d3f6051	0.046722714
132	0x3dc91500	0.098184586
133	0x3e3406ef	0.1758077
134	0x3dd73d18	0.105096996
135	0x3e1b3475	0.1515673
136	0x3d28143e	0.04103493
137	0x3df8a2ce	0.121404275
138	0xbcabbb47	-0.020963324
139	0x3e07f99f	0.13278817
140	0x3edfb9ba	0.43696386
141	0xbdad1c33	-0.08452644
142	0xbe47215e	-0.19446322
143	0x3bdb0b16	0.006684671
144	0x3e4950ab	0.19659679
145	0xbe607e0b	-0.21923082
146	0xbdadd8db	-0.084886275
147	0x3b9e0804	0.004822733
148	0x3d809b14	0.06279579
149	0x3eb1bdad	0.34715024
150	0xbd9ce43d	-0.076607205
151	0x3de9d05b	0.11416694
152	0xbda775f9	-0.081767984
153	0x3b09bc6e	0.0021016854
154	0x3e1e9ac2	0.15488723
155	0x3c922bd6	0.017843168
156	0x3d292a23	0.04129995
157	0x3e9137b3	0.28362808
158	0xbe896f5d	-0.26842776
159	0x3da7734c	0.08176288
160	0x3cb5f602	0.022212032
161	0xbd0d2595	-0.03445967
162	0x3e60cad0	0.21952367
163	0x3ec802cc	0.39064634
164	0x3d8052ff	0.0626583
165	0xbd22a25b	-0.039705615
166	0xbe23abb9	-0.15983476
167	0x3e915f70	0.28393126
168	0xbd62da44	-0.055383936
169	0x3e1cb770	0.15304351
170	0x3dd225b9	0.10261101
171	0x3df2e288	0.11859614
172	0x3c6f427e	0.014603255
173	0xbd1d4fd8	-0.038406223
174	0x3e606b84	0.21916014
175	0x3e15f9f6	0.14646134
176	0x3e45a5d9	0.19301547
177	0x3dcc3ffd	0.09973142
178	0x3e0c63a3	0.13709883
179	0x3e276c6f	0.16349958
180	0xbe9353a8	-0.28774762
181	0xbde66e7d	-0.11251543
182	0x3dedcf6f	0.116118304
183	0x3e127eec	0.1430623
184	0xbd8b1ff8	-0.06793207
185	0xbe6215b7	-0.22078596
186	0x3e2a5480	0.16633797
187	0xbe095a76	-0.13413414
188	0xbe02ff71	-0.12792756
189	0x3e1c99f0	0.15293097
190	0xbd5fe2eb	-0.054659765
191	0xbd6bbb0c	-0.05755143
192	0xbdfa7488	-0.12229258
193	0x3e72b9b1	0.23703648
194	0x3d2320c8	0.039826185
195	0xbec07633	-0.3759018
196	0x3dd0c48f	0.101937406
197	0xbe15451d	-0.14577146
198	0xbd81d1d8	-0.06338853
199	0x3ed62c96	0.4183089
200	0x3dfebbfd	0.124382
201	0x3e36f627	0.17867337
202	0x3e4cd271	0.20002152
203	0x3dc00d01	0.0937748
204	0x3e910a72	0.28328282
205	0x3e4efd61	0.20213844
206	0xbe926232	-0.28590542
207	0x3d8650f4	0.06558409
208	0x3eac84af	0.3369498
209	0x3b842ecd	0.0040338994
210	0x3e4f57b0	0.20248294
211	0x3d9ffca6	0.07811861
212	0x3db4ae64	0.08822325
213	0x3d035256	0.032060944
214	0xbce46cda	-0.027883936
215	0xbd9f20cb	-0.07769927
216	0xbd1bdfd1	-0.038055245
217	0xbe460ab0	-0.19340014
218	0xbe8ef402	-0.27920538
219	0x3ef2093a	0.47272664
220	0x3d6db3a9	0.058032665
221	0x3c6e4438	0.014542632
222	0xbef53c18	-0.4789741
223	0x3d245e31	0.04012889
224	0x3e078598	0.13234556
225	0x3ca7c32e	0.020478811
226	0x3cc2e4ad	0.023790682
227	0xbca9dcf4	-0.020735241
228	0x3e2abea2	0.16674283
229	0x3d2055fe	0.03914451
230	0x3e807c4b	0.25094828
231	0x3dc0127e	0.09378527
232	0xbd31e66d	-0.04343264
233	0x3e5a6547	0.21327697
234	0x3e81b275	0.25331464
235	0xbd2668a2	-0.04062713
236	0x3dde3f7e	0.10851954
237	0xbe16f013	-0.14740019
238	0x3e01f9c3	0.12692933
239	0xbd5a55b4	-0.05330439
240	0xbc5442a7	-0.012955344
241	0x3da8bffb	0.08239742
242	0xbc8da8a6	-0.017292332
243	0x3e1fd422	0.15608266
244	0xbc4e5957	-0.0125945425
245	0x3e54dfc4	0.20788485
246	0x3df56889	0.11982829
247	0x3e687a21	0.22702838
248	0xbe350325	-0.17676981
249	0xbba3ee5c	-0.00500278
250	0x3e23e977	0.16007029
251	0xbe47c75d	-0.19509645
252	0x3e70d2b0	0.23517871
253	0x3d4b7a9d	0.04967748
254	0x3d4155ef	0.047201093
255	0x3cdcfd71	0.026976319

fully_connected_3.bias f4 [4]
0	0x3e569057	0.20953499
1	0x3e438468	0.19093478
2	0x3de57765	0.11204413
3	0x3e0e3418	0.1388706
